track_1_model.pt (torch_old, 263246 bytes, 12 tensors)

cnn1.weight f4 [32, 1, 4, 4]
0	0xbe63d5fd	-0.22249599
1	0xbdfcfd30	-0.12352979
2	0xbcf12630	-0.029437155
3	0x3e5ce2fa	0.2157096
4	0xbe3d8440	-0.1850748
5	0xbde84eff	-0.11343192
6	0x3e31b9ea	0.17356077
7	0xbe2a492d	-0.16629477
8	0x3ded7fbd	0.1159663
9	0x3dfb3f38	0.122679174
10	0x3c46b7dc	0.012128796
11	0xbd8096b4	-0.06278744
12	0x3e42220b	0.18958299
13	0x3e352320	0.1768918
14	0x3e771b43	0.24131493
15	0xbd42fc77	-0.04760405
16	0x3dddb654	0.10825792
17	0xbe7596cf	-0.2398331
18	0x3e2e0888	0.16995442
19	0x3dbc394d	0.09190617
20	0x3cbb8649	0.02289118
21	0x3e789113	0.24274091
22	0xbe744315	-0.23853715
23	0x3d3dd3d9	0.04634461
24	0x3e06886b	0.13137977
25	0x3e1dc79e	0.15408179
26	0x3e34a1b3	0.17639808
27	0x3e3a5542	0.18196586
28	0xbe323a90	-0.17405152
29	0xbe016b52	-0.12638596
30	0x3d5557b2	0.052085586
31	0xba1818ca	-0.00058020337
32	0x3e1fbd20	0.15599489
33	0x3db96543	0.09052517
34	0x3d3ecfb6	0.046584807
35	0xbdd6ab24	-0.10481861
36	0x3e1d0791	0.15334918
37	0xbe4c9700	-0.19979477
38	0xbe518692	-0.20461491
39	0x3dcb6923	0.099321626
40	0xbe7d3197	-0.24725948
41	0xbea67b33	-0.3251587
42	0x3d70f149	0.058823857
43	0xbe582d11	-0.21110941
44	0xbc8e859c	-0.017397694
45	0x3c86eb48	0.016469613
46	0x3df81fed	0.12115464
47	0x3e49bbc9	0.1970054
48	0x3e12fc8d	0.14354153
49	0xbe27c346	-0.16383085
50	0xbdba776b	-0.091048084
51	0x3dea08ba	0.11427446
52	0xbe280ea5	-0.16411836
53	0xbd97f69d	-0.074200846
54	0xbe80a00d	-0.2512211
55	0xbe602e53	-0.21892671
56	0xbbcddf4b	-0.006282722
57	0x3e437c7f	0.1909046
58	0x3e12eed8	0.14348924
59	0x3e05a78e	0.13052198
60	0xbd1b7cce	-0.03796082
61	0xbd68baad	-0.056818653
62	0x3e4aed2a	0.19817033
63	0x3de4cbdf	0.11171698
64	0x3e73b044	0.23797709
65	0x3da8d7f6	0.08244316
66	0x3e81cf78	0.253536
67	0x3e0212b2	0.12702444
68	0xbe7b2e1e	-0.24529311
69	0xbe76f034	-0.24115068
70	0x3d551a67	0.052027132
71	0xbda2e3c6	-0.079536006
72	0xbe099b8b	-0.13438241
73	0x3e55773c	0.20846266
74	0xbcc4041a	-0.023927737
75	0xbd163280	-0.036669254
76	0x3e450178	0.19238842
77	0xbc9ffa9b	-0.019528678
78	0xbdecaf88	-0.115569174
79	0x3d5578c8	0.05211714
80	0x3df92d45	0.121668376
81	0x3dde4d56	0.108545944
82	0xbd52943c	-0.0514109
83	0x3e082f4c	0.13299292
84	0x3e61fab1	0.22068287
85	0xbe80aecd	-0.25133362
86	0x3dee41d7	0.11633652
87	0xbe85452f	-0.26029345
88	0x3d357ca6	0.044308327
89	0x3ccfc4b8	0.025362357
90	0xbded5963	-0.11589315
91	0xbe12805f	-0.14306782
92	0xbd963873	-0.073349856
93	0xbe437477	-0.19087397
94	0xbe096ff5	-0.13421614
95	0x3e3f448b	0.18678491
96	0xbe5b4d3f	-0.21416186
97	0xbc6c8988	-0.014437087
98	0xbe4a8dc2	-0.19780639
99	0x3d9a3e8a	0.0753146
100	0xbde9bfb1	-0.11413515
101	0x3c8d11fc	0.01722049
102	0xbe2ca61c	-0.1686024
103	0xbda13ae5	-0.07872561
104	0xbe2ef010	-0.17083764
105	0x3e71410d	0.23559971
106	0x3dd2b5ec	0.10288605
107	0xbd4bc0a4	-0.049744263
108	0x3e4324da	0.19057027
109	0xbdce2de2	-0.10067345
110	0x3e496a99	0.1966957
111	0xbe163f74	-0.14672643
112	0xbcdf081c	-0.027225547
113	0xbcafa33c	-0.02144014
114	0x3e48c56d	0.19606562
115	0x3ea6c968	0.32575536
116	0xbe4ac5be	-0.19801995
117	0xbe74161c	-0.23836559
118	0xbe6344b3	-0.22194175
119	0x3e28988b	0.1646444
120	0x3d610eb8	0.054945678
121	0xbea42159	-0.32056692
122	0xbe8d5194	-0.27601302
123	0x3d93c0f1	0.07214535
124	0x3d529dcc	0.051420018
125	0x3ea4a4cb	0.32156977
126	0xbd057bb0	-0.03258866
127	0xbe0c3e15	-0.13695557
128	0x3def052f	0.116709106
129	0x3d4c2173	0.049836587
130	0xbe38f1db	-0.1806101
131	0xbe4f83ac	-0.20265073
132	0xbdc08743	-0.09400799
133	0x3e5ec0bb	0.21753208
134	0x3e75c690	0.24001527
135	0x3cbffa2c	0.023434721
136	0x3d7e2941	0.06205106
137	0x3be56986	0.0070011048
138	0xbe374ddf	-0.17900799
139	0xbd9e5502	-0.07731058
140	0x3e3ac0ae	0.18237564
141	0x3dc66533	0.09687271
142	0x3e35ee47	0.17766677
143	0xbd907e2d	-0.07055316
144	0x3c76171a	0.015020156
145	0xbda7ee71	-0.08199776
146	0x3d940475	0.072274126
147	0xbe05c8d6	-0.13064894
148	0x3d4946d0	0.049139798
149	0xbe00c636	-0.12575611
150	0xbc551dee	-0.013007624
151	0x3d9aff46	0.07568221
152	0x3e11472d	0.14187308
153	0xbc58190f	-0.013189568
154	0x3d67b452	0.05656845
155	0xbd0dd282	-0.034624584
156	0x3e423f74	0.18969518
157	0x3e6f8491	0.23390414
158	0x3ea8e7fc	0.3298949
159	0xbe1664a9	-0.14686836
160	0xbd6007d0	-0.05469495
161	0xbe3d9e5a	-0.18517438
162	0x3c29649f	0.010338931
163	0x3e0cfa06	0.13767251
164	0x3e340a70	0.17582107
165	0x3e5c8242	0.21534064
166	0xbe0e308f	-0.13885711
167	0x3e7254ad	0.23665114
168	0x3e4e8cc6	0.20170888
169	0x3c90e64e	0.017687943
170	0xbe2f4f85	-0.17120178
171	0xbcc565c7	-0.024096383
172	0x3e56e811	0.20986964
173	0x3d41d895	0.04732569
174	0x3e0b127b	0.13581268
175	0x3e2a6db1	0.16643406
176	0xbe2b252e	-0.16713402
177	0x3d44168f	0.047873076
178	0xbe77ad99	-0.24187316
179	0x3e61925e	0.22028491
180	0x3dbb8d94	0.09157863
181	0x3e6ed2d8	0.23322618
182	0xbe5e83a2	-0.21729901
183	0x3d76896d	0.060189653
184	0xbc8a2a47	-0.016865863
185	0xbcc8ed31	-0.024527164
186	0x3d38856c	0.045049116
187	0xbdda50df	-0.10659956
188	0xbdc18291	-0.09448732
189	0xbe759cbf	-0.23985575
190	0xbe2229ad	-0.1583621
191	0x3d385bca	0.045009412
192	0x3e7060fd	0.23474498
193	0x3e21ab44	0.15787989
194	0x3c95fd09	0.018309133
195	0xbdc9e80a	-0.09858711
196	0xbe630f9d	-0.22173925
197	0xbd8c74bc	-0.06858203
198	0x3e51400d	0.2043459
199	0xbdadc7ec	-0.08485398
200	0xbe48ed24	-0.19621712
201	0xbd40c66d	-0.047064234
202	0x3cadf27c	0.02123379
203	0x3e73c080	0.23803902
204	0xbe76d15a	-0.24103299
205	0xbd7e2a7c	-0.062052235
206	0x3e3a94c3	0.1822081
207	0xbe115ace	-0.14194795
208	0x3d75adb3	0.059980106
209	0x3e721d9f	0.23644112
210	0x3d23c4ab	0.03998248
211	0x3e75c2a9	0.24000038
212	0x3e3775ca	0.17916027
213	0xbdf6149e	-0.12015651
214	0xbdf9d207	-0.12198263
215	0x3e0746bc	0.13210577
216	0xbdf66738	-0.12031406
217	0xbe7d9dbe	-0.24767205
218	0x3e5509c7	0.20804511
219	0x3cebe998	0.02879791
220	0x3e3328e8	0.17496073
221	0xbe23ddea	-0.16002622
222	0xbdf41c0b	-0.11919411
223	0x3e2f6616	0.17128786
224	0xbd754a2a	-0.05988518
225	0x3d75f4c6	0.060047887
226	0x3d13c790	0.03607899
227	0xbdda3896	-0.10655324
228	0x3e4d1f2f	0.20031427
229	0xbbd59f5c	-0.0065192413
230	0x3e74293b	0.23843853
231	0xbc57bea6	-0.013168013
232	0xbdcd2d0b	-0.10018357
233	0x3deb6a82	0.11494924
234	0x3e54b92a	0.2077376
235	0x3e67709a	0.22601548
236	0xbe6bb9bf	-0.23020075
237	0x3e715458	0.23567331
238	0xbe0c7147	-0.13715087
239	0x3d16397a	0.036675908
240	0xbd2cbcb3	-0.042172145
241	0xbe41c209	-0.18921675
242	0xbe269a97	-0.16269909
243	0xbd972d2e	-0.07381664
244	0x3d6d8545	0.057988424
245	0xbb5d9ba8	-0.0033814702
246	0xbda1d59c	-0.07902071
247	0xbd022a42	-0.03177858
248	0x3ebacd78	0.36484885
249	0x3e531d3f	0.20616625
250	0x3e5186e9	0.2046162
251	0x3e83a35f	0.2571058
252	0xbe315b99	-0.17320098
253	0xbe3fe216	-0.18738589
254	0x3dde4ec5	0.10854868
255	0x3e725cc3	0.23668198

cnn1.bias f4 [32]
0	0xbe2f4389	-0.17115606
1	0x3e6b83f7	0.2299956
2	0x3de1569b	0.11002847
3	0x3d9ece50	0.07754195
4	0xbd0c9889	-0.034325156
5	0xbd122992	-0.035684176
6	0x3cc25c6b	0.023725709
7	0xbdc2632f	-0.09491574
8	0xbda5212d	-0.080629684
9	0xbe6b3bf1	-0.22972085
10	0x3e78b649	0.24288286
11	0x3d462087	0.048370864
12	0xbe06c5c5	-0.1316138
13	0xbe068fa2	-0.13140729
14	0xbce57aa0	-0.028012574
15	0xbe83ad31	-0.25718072
16	0xbdce4594	-0.10071865
17	0xbe64bb08	-0.22336972
18	0x3df7acd2	0.1209351
19	0xbebe9c87	-0.37228796
20	0x3e82db2d	0.25557843
21	0x3e7bee60	0.24602652
22	0x3d909228	0.07059127
23	0xbd44c39b	-0.048038106
24	0x3d0e9102	0.03480626
25	0x3da8b58c	0.08237752
26	0xbe16c4d7	-0.14723526
27	0x3dd15e59	0.102230735
28	0x3e736678	0.23769557
29	0x3ceba8c5	0.028766999
30	0xbe2b27ce	-0.16714403
31	0x3e4182bb	0.18897526

cnn2.weight f4 [16, 32, 3, 3]
0	0xbd63302a	-0.055465855
1	0xbd7d6027	-0.061859276
2	0xbd2ac3e8	-0.041690737
3	0x3c193fcd	0.00935359
4	0x3d175a8e	0.036951594
5	0x3d454493	0.0481611
6	0xbc4eed56	-0.0126298275
7	0xbd309388	-0.043109447
8	0xbbd9373c	-0.006628899
9	0xbd89ac94	-0.0672237
10	0xbccc13d3	-0.024911797
11	0xbce4c6a1	-0.027926745
12	0xbd449792	-0.04799611
13	0x3d1e335f	0.03862321
14	0xbd2dbe00	-0.042417526
15	0x3d055a60	0.03255689
16	0xba9a3a56	-0.0011766653
17	0xbd1ad328	-0.03779903
18	0xbc846df3	-0.01616571
19	0xbd5189dd	-0.051156867
20	0xbd248e18	-0.040174574
21	0xbd051993	-0.032495093
22	0x3ce6b82c	0.028163992
23	0xbcf596d9	-0.029979156
24	0xbc2ef85d	-0.010679332
25	0x3d00b455	0.031421978
26	0xbd4d4f42	-0.050124414
27	0xbd470b7e	-0.048594944
28	0x3c59b040	0.01328665
29	0xbd41c47c	-0.047306523
30	0x3c5dea2e	0.013544602
31	0x3d2a6b3f	0.041606184
32	0xbd371355	-0.04469617
33	0x3d273e6f	0.040831026
34	0xbcb7eb5d	-0.022451097
35	0x3bde5787	0.0067853364
36	0xbd6d00e2	-0.05786217
37	0xbd4dd3c6	-0.05025079
38	0x3c63e7d5	0.0139102535
39	0xbd7ffa20	-0.062494397
40	0xbd70fb09	-0.058833156
41	0x3bd65b8b	0.0065416745
42	0xbc1ff0a9	-0.009761968
43	0xbd22ae79	-0.03971717
44	0xbc185df0	-0.00929974
45	0x3d2186a0	0.03943503
46	0xbc843318	-0.016137645
47	0x3c4226db	0.011850084
48	0x3c3fcc63	0.011706444
49	0x3c6b7fd1	0.0143737355
50	0xba38d422	-0.0007050653
51	0x3ccab24a	0.024743218
52	0xbca8d406	-0.020608913
53	0x3d193adf	0.03740966
54	0x3cc46137	0.023972137
55	0xbcaf8311	-0.021424802
56	0xbbb54a33	-0.005532527
57	0xbd2b75d7	-0.041860428
58	0xbd2cd48c	-0.042194888
59	0xbd4caec6	-0.049971364
60	0x39d2332e	0.00040092453
61	0x3d23edfb	0.040021878
62	0xbc66ef12	-0.014095085
63	0xbc6ecee3	-0.014575693
64	0x3d7d524d	0.061846066
65	0x3d3e6f04	0.04649259
66	0xbcedde81	-0.029036762
67	0x3b94865c	0.0045326184
68	0x3d8798cc	0.066209406
69	0xbc7d20a4	-0.015449677
70	0xbcc6a1bb	-0.024247041
71	0x3c02cf3e	0.007983981
72	0x3d04f60a	0.032461204
73	0xbc7582cb	-0.014984797
74	0xbbb850c7	-0.005624864
75	0x3d31b822	0.043388493
76	0xbd5a6572	-0.053319402
77	0xbd82647e	-0.063668236
78	0x3c861b1a	0.016370345
79	0xbbc34a8a	-0.0059598135
80	0x3cd3da6c	0.025860988
81	0xbcbd8504	-0.023134716
82	0x3c9d6bd9	0.019216465
83	0x3d011eaa	0.031523384
84	0xbc947163	-0.018120473
85	0x3d0ebaa0	0.03484595
86	0xbd268f97	-0.04066428
87	0x3d1f526c	0.038896963
88	0xbd866b72	-0.06563462
89	0xbd46b58d	-0.048512984
90	0xbd15e5e3	-0.03659619
91	0xbba6fc13	-0.0050959676
92	0xbcab9df5	-0.020949343
93	0x3babeddf	0.0052468623
94	0xbd252752	-0.040320702
95	0xbd241fdf	-0.040069457
96	0x3bfa346a	0.007635643
97	0xbc710dcb	-0.014712761
98	0x3d3d6c9f	0.046246167
99	0x3d341795	0.043967802
100	0xbd056992	-0.032571383
101	0xbd3b757f	-0.04576635
102	0xbce772a7	-0.028252913
103	0x3cf00b5f	0.029302297
104	0xbd454e97	-0.048170652
105	0xbc4f450b	-0.0126507385
106	0x3c08f0dd	0.0083582075
107	0xbb946f3b	-0.0045298613
108	0x3d2796a7	0.040915158
109	0x3d354e43	0.04426409
110	0x3bb9b54b	0.0056673638
111	0x3c44067e	0.0119644385
112	0xbd584790	-0.052802622
113	0x3c82281a	0.015888263
114	0x3c4a6b38	0.0123546645
115	0xbc553aab	-0.013014476
116	0x3d1b0714	0.037848547
117	0xbd35fd3a	-0.04443095
118	0xbd73b732	-0.05950088
119	0xbc1048f7	-0.008806459
120	0x3cab965b	0.020945719
121	0xbd1bac25	-0.038005967
122	0x3cefa4ba	0.029253352
123	0x3d1d800b	0.03845219
124	0x3cc3c5d2	0.023898039
125	0xbabf2f69	-0.0014586273
126	0x3d48baea	0.04900638
127	0xbcab6012	-0.020919833
128	0x3d3e49a7	0.04645696
129	0x3d0fc888	0.03510335
130	0xbd1ead44	-0.038739458
131	0xbc909419	-0.017648743
132	0x3c6cd5b9	0.014455252
133	0x3c1643cb	0.009171437
134	0xbb259c8d	-0.0025270313
135	0xbd590546	-0.052983545
136	0xbc7fab85	-0.015604858
137	0x3d5b9f28	0.05361858
138	0x3bed2ca8	0.0072379895
139	0xbac30655	-0.0014879206
140	0xbc9156ca	-0.01774158
141	0xbd0f897f	-0.035043236
142	0xbc03a17c	-0.008034106
143	0x3b8cc2c6	0.0042956797
144	0x3d182d27	0.037152436
145	0xbd81ec84	-0.0634394
146	0x3d165f53	0.036712002
147	0x3bf5f358	0.0075058155
148	0x3d431ac6	0.047632955
149	0x3c811b8c	0.015760206
150	0xbb8d647b	-0.0043149567
151	0xbd547f08	-0.05187896
152	0xbd2665ee	-0.04062455
153	0x3c98ba63	0.018643564
154	0xbd1775b0	-0.03697747
155	0x3b847488	0.004042212
156	0xbce3dbeb	-0.027814826
157	0xbd6ad129	-0.057328377
158	0xbd3e4a86	-0.04645779
159	0xbd5de899	-0.0541769
160	0xbc2b555e	-0.010457365
161	0xbbcb5fb8	-0.006206479
162	0xbcad3ab4	-0.021146156
163	0x3bc734b2	0.00607928
164	0x3ce9e6ca	0.028552432
165	0xbcce844d	-0.02520957
166	0xbcf2a181	-0.029618027
167	0xbd31267b	-0.04324959
168	0x3d2afe37	0.041746344
169	0xbd62b64c	-0.055349633
170	0xbcca78d9	-0.024715828
171	0x3ce5ae8e	0.028037336
172	0x3d6732d4	0.056444958
173	0xbd5893e3	-0.05287541
174	0xbd0f3404	-0.034961715
175	0x3b02ce82	0.0019959514
176	0x3c961197	0.018318934
177	0xbd488587	-0.048955467
178	0xbb093ace	-0.0020939591
179	0x3c900320	0.017579615
180	0xbd757f40	-0.05993581
181	0xbb587fcb	-0.0033035155
182	0x3d145115	0.03621014
183	0x3cf0e7f4	0.029407479
184	0xb973c066	-0.0002324596
185	0xbd80130e	-0.062536344
186	0xbb72edab	-0.003706793
187	0x3d0e44e9	0.034733687
188	0xbd0979c3	-0.033563387
189	0xbd865843	-0.06559803
190	0x3ccf8ee6	0.025336694
191	0x3cd7d491	0.026346477
192	0xbaa883c0	-0.0012856647
193	0x3d1ab2dc	0.03776823
194	0xbd219fc5	-0.03945901
195	0xbc6a606d	-0.014305216
196	0xbc63780d	-0.013883603
197	0xbd88933f	-0.0666871
198	0x3d42cc95	0.047558386
199	0xbc3f44dc	-0.011674132
200	0xbd7e08e9	-0.062020216
201	0xbc93fc81	-0.01806474
202	0xbc033f9a	-0.008010769
203	0x3d2c2313	0.042025637
204	0xbd8a44fa	-0.067514375
205	0x3c4eaa8b	0.012613903
206	0x3d1beab1	0.038065616
207	0x3d51b2da	0.051195957
208	0x3d1d6d3d	0.038434256
209	0xbd50d222	-0.05098165
210	0x3ca493df	0.020090042
211	0xbcae76ba	-0.021296848
212	0x3d1410fb	0.036149006
213	0x3ad2ce60	0.0016083233
214	0x3cbfd97d	0.023419136
215	0x3d1c5460	0.038166404
216	0x3d3d62c7	0.04623678
217	0xbd2d1f90	-0.04226643
218	0xbca2ff5a	-0.019897152
219	0xbc5700fa	-0.013122791
220	0x3c934aeb	0.01798006
221	0x3c9f34b6	0.019434314
222	0xbd2b89c2	-0.041879423
223	0xbd2c1ea2	-0.0420214
224	0xbd6fb7d1	-0.05852491
225	0x3caec3b4	0.021333553
226	0xbc8f4bec	-0.017492257
227	0xbd18ae85	-0.03727581
228	0xbb1a04dd	-0.0023501434
229	0xbca1fcc4	-0.019773848
230	0x3cbd07fe	0.0230751
231	0x3cea3e0e	0.028594043
232	0xbd0429cc	-0.032266423
233	0x3d349f94	0.044097498
234	0x3d35e2b5	0.044405658
235	0xba942e06	-0.001130522
236	0xbcee37fc	-0.02907943
237	0x3b79814e	0.0038071456
238	0xbd1ee900	-0.038796425
239	0xbd31a512	-0.043370314
240	0xbd70dbae	-0.058803253
241	0xbcdcfc18	-0.026975676
242	0xbc869f2c	-0.016433321
243	0xbd4cb2ec	-0.04997532
244	0x3cd7b5e1	0.026331844
245	0xbc78f299	-0.015194559
246	0x3cbca5ad	0.02302822
247	0xbd15c67c	-0.036566243
248	0xbccaa957	-0.02473895
249	0xbc0527cf	-0.008127167
250	0x3bd0560c	0.006357914
251	0x3c856030	0.016281217
252	0xbd357a67	-0.044306185
253	0xbd0c62e4	-0.034273997
254	0x3d23d77c	0.040000424
255	0xbd662237	-0.056184974

cnn2.bias f4 [16]
0	0xbcd794ef	-0.026316134
1	0xbd874f1c	-0.06606886
2	0xbcfd3357	-0.03090827
3	0xbd667eeb	-0.056273382
4	0x3d576379	0.0525851
5	0xbd4757bc	-0.048667654
6	0xbcaea943	-0.021320945
7	0xbcce7bbd	-0.025205487
8	0xbbd034e2	-0.0063539604
9	0xbc4019ec	-0.01172493
10	0x3d580b0d	0.052744914
11	0xbcbc4306	-0.022981178
12	0x3d0b43dd	0.034000266
13	0xbd2f1f37	-0.04275438
14	0x3d0877d8	0.033317417
15	0xbd338762	-0.043830283

cnn3.weight f4 [16, 16, 3, 3]
0	0x3c702e60	0.014659494
1	0x3da8d2e5	0.0824335
2	0xbd7c3b38	-0.061579913
3	0xbbe82880	-0.007084906
4	0x3d50557e	0.05086278
5	0x3da67d65	0.08129386
6	0xbda109d7	-0.07863205
7	0xbd724d30	-0.059155643
8	0xbcfd4c06	-0.03092004
9	0x3d388832	0.04505176
10	0xbd9ab0ba	-0.07553239
11	0x3d19ca52	0.037546463
12	0xbca4e08c	-0.020126604
13	0x3cebd930	0.028790087
14	0xbd6227fe	-0.05521392
15	0xbd5ee2c3	-0.054415476
16	0x3d480cda	0.04884038
17	0xbda107f8	-0.07862848
18	0xb99b2100	-0.0002958849
19	0xbd8d9142	-0.06912471
20	0x3d1de3be	0.03854727
21	0xbd6ad0c0	-0.057327986
22	0x3cc1c064	0.02365131
23	0x3b7a4000	0.003818512
24	0x3cc49920	0.023998797
25	0xbd9be88e	-0.07612716
26	0xbd9e7206	-0.07736592
27	0x3c8d13d3	0.017221367
28	0xbdb1fe97	-0.08691137
29	0xbdc17ec2	-0.09448005
30	0x3bccf3a2	0.006254629
31	0xbc82b9e8	-0.015957788
32	0xbc553df4	-0.013015259
33	0xbdb84b0e	-0.089986905
34	0x3cbf9332	0.023385618
35	0x3c69dbab	0.014273564
36	0xbd6fefa6	-0.058578156
37	0xbc80c624	-0.01571948
38	0xbca9ced9	-0.020728515
39	0xbd65bb47	-0.056086805
40	0xbd55c2d9	-0.052187774
41	0x3c73d2af	0.014881774
42	0xbd800fde	-0.062530264
43	0xbda5bc31	-0.08092535
44	0xbd450ca6	-0.048107766
45	0xbda0495f	-0.078264944
46	0x3d9a5a09	0.07536704
47	0x3c4d1998	0.012518309
48	0xbd2350e3	-0.03987206
49	0xbcbd6966	-0.023121547
50	0xbda7240e	-0.08161174
51	0xbd0f21d8	-0.034944385
52	0xbd9f1622	-0.077678934
53	0x3d811b99	0.06304092
54	0xbd97aff2	-0.07406606
55	0x3d8301f3	0.06396856
56	0xbda63cb6	-0.081170484
57	0xbd8cadb4	-0.06869069
58	0x3c2daff8	0.010601036
59	0x3d424c92	0.047436304
60	0x3cca4cf0	0.02469489
61	0x3d629502	0.055317886
62	0xbd975a27	-0.07390242
63	0xbbbefe80	-0.0058286786
64	0xbd49d8b3	-0.049278926
65	0xbd1b9110	-0.03798014
66	0xbd3360e3	-0.04379357
67	0x3a777c00	0.00094407797
68	0xbd98b1ce	-0.074557886
69	0xbd571c70	-0.052517354
70	0x3d6cbbaa	0.057796158
71	0xbd84a996	-0.064776585
72	0xbd9eb9ab	-0.07750257
73	0xbdaf9179	-0.085726686
74	0xbb416759	-0.0029511063
75	0xbd0a33ea	-0.033740915
76	0xbb66e1ed	-0.0035229877
77	0xbd30e30d	-0.043185282
78	0x3d5bff05	0.053710002
79	0xbdbb9782	-0.09159757
80	0xbc06b0f6	-0.008220902
81	0xbcc1bc16	-0.023649257
82	0x3bed6210	0.007244356
83	0x3cc086b4	0.023501731
84	0xbd91ad03	-0.071130775
85	0x3d4e7936	0.050408565
86	0xbd6c5a28	-0.057703167
87	0x3d444c22	0.04792417
88	0x3cb8c680	0.02255559
89	0xbd88656a	-0.06659968
90	0x3d064fb1	0.032790843
91	0xbce71735	-0.028209308
92	0x3d0b668b	0.03403334
93	0xbd807091	-0.0627147
94	0xbdb466a0	-0.08808637
95	0x3c5c93e1	0.013462991
96	0x3c3ec25f	0.011643021
97	0xbd0d6dbb	-0.034528475
98	0xbcd78856	-0.026310127
99	0xbc8aba50	-0.016934544
100	0xbd804143	-0.06262448
101	0xbd6e54ab	-0.058186214
102	0x3c8ba2cc	0.017045401
103	0x3d50f48e	0.051014476
104	0x3a89b400	0.0010505915
105	0x3d0d8f36	0.034560405
106	0xbda7ecb4	-0.081994444
107	0xbd891664	-0.06693724
108	0xbd6e6cb3	-0.058209132
109	0x3da65135	0.08120958
110	0xbccd18f6	-0.025036316
111	0xbc92f930	-0.017941087
112	0x3da95dd9	0.08269853
113	0x3c258418	0.010102294
114	0x3d2db34e	0.042407326
115	0xbb9fb6b0	-0.004874073
116	0xbd9f8d82	-0.07790662
117	0x3c91a5ac	0.017779194
118	0x3c8a126c	0.016854487
119	0xbda1a6f0	-0.07893169
120	0x3ca73f44	0.02041591
121	0xbd1c3a2b	-0.03814141
122	0x3b7db120	0.003871031
123	0xbd2d890e	-0.042367034
124	0x3d9b1ded	0.07574067
125	0x3d0820b8	0.033234328
126	0xbd53d8a6	-0.051720284
127	0xbc754cf8	-0.014971964
128	0x3cb65e50	0.022261769
129	0x3ba317f0	0.004977219
130	0x3a79a280	0.00095228106
131	0xbc814674	-0.015780665
132	0xbd5d0010	-0.053955138
133	0xbd1d6a7e	-0.038431637
134	0xbd67cefe	-0.056593888
135	0x3ca8b3c1	0.020593526
136	0xbc4de284	-0.012566213
137	0x3d199117	0.037491884
138	0xbc437c4c	-0.01193149
139	0xbda4b474	-0.08042231
140	0xbc2e31f6	-0.010632029
141	0x3d0a8525	0.033818383
142	0x3c92f4ac	0.017938934
143	0xbc06d25a	-0.008228863
144	0x3d977f54	0.07397333
145	0x3b9695c1	0.004595489
146	0x3d1a5ac6	0.037684225
147	0xbd86d67c	-0.065838784
148	0x3d2f73a6	0.0428349
149	0xbd2d4295	-0.042299826
150	0x3d95738a	0.07297428
151	0x3d6d9993	0.058007788
152	0xbce5b438	-0.028040037
153	0xbd577f68	-0.05261174
154	0x3c8996f0	0.016795605
155	0xbcf83a45	-0.030301223
156	0x3cabb238	0.020959005
157	0x3c0fe808	0.008783348
158	0xbd6ff7f6	-0.058586083
159	0xbd618163	-0.055055033
160	0xbd87ccd3	-0.06630864
161	0x3c4ace15	0.012378235
162	0xbd42d906	-0.04757025
163	0xbc2a5808	-0.010396965
164	0x3d8b55c3	0.06803467
165	0xbd372470	-0.044712484
166	0x390eb2c7	0.00013608775
167	0x3d7e202a	0.062042393
168	0x3d6ff941	0.058587316
169	0x3d251e86	0.040312313
170	0x3ba8d5fe	0.005152463
171	0x3da1c204	0.07898334
172	0x3db6aef1	0.08920086
173	0x3e253fdd	0.16137643
174	0xbdcab8c6	-0.09898524
175	0xbd3abedd	-0.045592178
176	0xbc0d9fd7	-0.008644066
177	0xbe05c987	-0.13065158
178	0xbbf42d14	-0.007451663
179	0xbd884121	-0.06653047
180	0x3e034583	0.12819485
181	0x3d46ceb6	0.04853698
182	0xbc83c95c	-0.016087227
183	0x3d213490	0.039356768
184	0x3c910722	0.017703597
185	0x3c71553d	0.014729795
186	0xbd4a33a6	-0.049365662
187	0xbdded5ab	-0.10880598
188	0xbd7bcfdb	-0.061477523
189	0x3bd842d9	0.0065997657
190	0x3d01dfd9	0.03170762
191	0xbd443ed4	-0.04791148
192	0x3cffaf0e	0.031211402
193	0x3cf74d08	0.030188099
194	0xbbc7a491	-0.006092616
195	0x3cb365f1	0.021899195
196	0x3d27d4a1	0.040974263
197	0xbb7386a3	-0.0037159107
198	0x3d84338f	0.064551465
199	0x3d330ece	0.04371529
200	0xbd9a02ae	-0.07520042
201	0xbcd6485c	-0.02615755
202	0x3d4e897a	0.050424077
203	0x3d1f82fc	0.038943276
204	0xbd0bbb9e	-0.034114473
205	0x3d362494	0.044468477
206	0xbd93dd5a	-0.07219954
207	0x3cf85d78	0.030318007
208	0xbbef881f	-0.007309928
209	0x3ac605c5	0.0015107921
210	0x3cee9fb2	0.029128883
211	0x3d1cfa19	0.03832445
212	0xbd17531f	-0.036944505
213	0x3d138225	0.036012787
214	0x3bcef98c	0.0063163694
215	0xbd36eeea	-0.04466144
216	0x3db0be88	0.08630091
217	0x3e23946f	0.15974592
218	0x3db16506	0.08661847
219	0x3d3f77e2	0.04674519
220	0x3d790572	0.06079621
221	0xbd815866	-0.06315689
222	0xbd776595	-0.06039961
223	0xbe0c7261	-0.13715507
224	0xbda0071a	-0.078138545
225	0x3c201ca8	0.009772457
226	0xbd43a6cb	-0.047766488
227	0xbc7346b8	-0.014848404
228	0x3d6265a2	0.055272706
229	0xbd376806	-0.04477694
230	0x3c1b6b48	0.009486027
231	0x3d7c99f2	0.06167025
232	0xbd38bb58	-0.04510054
233	0x3d66314e	0.056199364
234	0xbd696b49	-0.05698708
235	0x3db4bfff	0.08825683
236	0x3d0be377	0.034152474
237	0x3d8e9ab6	0.069631025
238	0x3dcc954e	0.09989415
239	0x3d688bfc	0.056774125
240	0xbb0e753d	-0.002173736
241	0xbd372624	-0.044714108
242	0x3cbc5401	0.022989275
243	0xbcf7b6b1	-0.030238481
244	0xbc1387f1	-0.009004579
245	0xbd9525b3	-0.07282581
246	0xbd2e133e	-0.04249882
247	0x3d800c6f	0.062523715
248	0x3d9edf40	0.07757425
249	0x3d05b6f0	0.032645166
250	0xbd9569c9	-0.072955675
251	0x3c4728a2	0.012155684
252	0xbd8e9c07	-0.069633536
253	0x3d2be332	0.041964717
254	0x3d6432e8	0.05571261
255	0x3baed99b	0.005335999

cnn3.bias f4 [16]
0	0xbd95ddce	-0.073176965
1	0xbc04d057	-0.008106313
2	0x3d7affd0	0.061279118
3	0xbcdb3f14	-0.026763476
4	0xbd99a6f6	-0.075025484
5	0xbc5a89a0	-0.013338476
6	0xbccfbd7b	-0.025358906
7	0xbc91df65	-0.017806718
8	0xbd88fd94	-0.06688991
9	0xbbe450d9	-0.0069676456
10	0x3d82b6d5	0.06382529
11	0x3d92657e	0.07148264
12	0x3d718aef	0.058970388
13	0xbcd7bcd3	-0.026335156
14	0x3b918142	0.0044404576
15	0x3d0aadeb	0.033857267

fc1.weight f4 [128, 385]
0	0x3c8b6fac	0.017021023
1	0xbc4d3810	-0.012525573
2	0x3c3c74dc	0.011502471
3	0x3c15122c	0.009098571
4	0x3c8ce884	0.017200716
5	0x3c9734d8	0.018457815
6	0x3cfef550	0.031122833
7	0xbc931864	-0.017955966
8	0x3d1e9100	0.0387125
9	0xbcc14ee9	-0.023597198
10	0x3d4c26e2	0.04984177
11	0xbd381e02	-0.044950493
12	0xbd02325e	-0.031786315
13	0x3d090720	0.03345406
14	0x3b551bb0	0.0032517724
15	0x3c38e8cc	0.011285972
16	0x3c398818	0.011323951
17	0xbd31f5ca	-0.043447293
18	0x3b530240	0.0032197386
19	0xbc9bdd3c	-0.019026391
20	0x3d149786	0.036277317
21	0xbccf9eb3	-0.025344228
22	0xbd06ba4c	-0.03289251
23	0x3cea43fc	0.02859687
24	0xbcf8b575	-0.030359963
25	0x3c192405	0.009346967
26	0x3c4d7960	0.012541145
27	0xbd439e4e	-0.047758393
28	0xbd675338	-0.056475848
29	0xbd4e3f3e	-0.05035328
30	0xbcb6132d	-0.02222594
31	0x3b8fa760	0.0043839663
32	0xbd147b13	-0.036250185
33	0x3c752bd4	0.014964063
34	0x3c369dba	0.011146003
35	0x3c5b1fc0	0.013374269
36	0x3c386702	0.011255028
37	0xba706d39	-0.0009171549
38	0x3c73680c	0.01485635
39	0xbcb3f3b8	-0.0219668
40	0xbda32249	-0.07965524
41	0xbd674c95	-0.05646952
42	0xbc663bb7	-0.014052323
43	0xbd4a0329	-0.04931942
44	0xbacd5a42	-0.0015667158
45	0xbc1b4d19	-0.009478831
46	0xbc044a1a	-0.008074308
47	0x3c35a49e	0.011086611
48	0x3b431450	0.0029766746
49	0xbcec0874	-0.028812625
50	0xbd47ade9	-0.048749838
51	0xbc373d45	-0.011184041
52	0xbd8fc9ec	-0.070209354
53	0xbc533ae4	-0.012892459
54	0x3b1a91f0	0.002358552
55	0xbcb960f9	-0.022629248
56	0x3d302fb8	0.04301426
57	0xbbe4eca0	-0.0069862157
58	0xbd2edb4a	-0.0426896
59	0x3cc774d4	0.0243477
60	0xbd3c575a	-0.045981742
61	0xbd7bdcd6	-0.061489902
62	0xbd80d8e2	-0.06291367
63	0xbd82009f	-0.06347775
64	0xbd9363f4	-0.07196799
65	0xba7414d8	-0.0009310967
66	0x3b223480	0.002475053
67	0xbaf45540	-0.0018641129
68	0xbcebb7b8	-0.028774127
69	0x3d3f3f60	0.0466913
70	0xbd0cfa9c	-0.034418687
71	0xbcb77516	-0.022394698
72	0xbd58e4b1	-0.052952472
73	0xbd4f77f7	-0.050651517
74	0xbd80276a	-0.06257518
75	0xbce1cf95	-0.027564803
76	0xbd914f43	-0.07095196
77	0xbd4b80fa	-0.04968355
78	0xbd9609e7	-0.073261075
79	0xbd899a47	-0.06718879
80	0xbd51c92c	-0.051217243
81	0xbd96e420	-0.0736773
82	0xbd8fc241	-0.07019473
83	0xbbf0429d	-0.0073321597
84	0xbd4916b4	-0.049093917
85	0xbd9d3220	-0.07675576
86	0xbd6eb68d	-0.058279563
87	0xbd94e289	-0.07269771
88	0x3c6b8614	0.014375228
89	0xbc434912	-0.011919277
90	0xbd8b853a	-0.0681252
91	0xbd7224eb	-0.05911724
92	0xbd5e93c9	-0.054340158
93	0x3c68bb51	0.014204816
94	0xbc406cf6	-0.011744728
95	0xbc75891e	-0.014986305
96	0xbcf40541	-0.029787662
97	0x3c278d30	0.010226533
98	0xbd4e60cf	-0.050385293
99	0x3d26681c	0.04062663
100	0xbced0e3e	-0.028937455
101	0x3d3311dc	0.043718204
102	0xbb5561a0	-0.003255941
103	0xbd3b42c6	-0.045717977
104	0xbcfe5a12	-0.031048808
105	0xbd0204ad	-0.03174274
106	0x3d395fa2	0.04525722
107	0xbd4d7560	-0.050160766
108	0xbc5abb98	-0.01335039
109	0xbcfc94d4	-0.030832686
110	0xbbcdb8b0	-0.00627812
111	0x3cfcec30	0.030874342
112	0xbcea558a	-0.028605241
113	0xbc8438f8	-0.016140446
114	0xbc065d90	-0.008201018
115	0x3c19e740	0.009393513
116	0x3d38bbde	0.04510104
117	0xbd24b16b	-0.04020826
118	0x3ce76fa8	0.028251484
119	0xbd456cc2	-0.048199423
120	0x3ceea2e4	0.029130407
121	0x3d44adee	0.048017435
122	0x3cbdb734	0.023158647
123	0x3c838078	0.01605247
124	0x3ce25fac	0.02763351
125	0xbcfc4983	-0.030796772
126	0xbce5e67b	-0.028064003
127	0x3c9d95a0	0.019236386
128	0xbc6497a0	-0.013952166
129	0xbd2c3cb5	-0.042050082
130	0x3d1b6780	0.037940502
131	0x3d1b69f4	0.03794284
132	0xbbdb2b00	-0.0066884756
133	0x3d4a0828	0.049324185
134	0x3c3c5d04	0.011496786
135	0xbc67ae44	-0.014140669
136	0x3d08aee0	0.0333699
137	0xbca6e4a5	-0.020372698
138	0xbcff9e2b	-0.03120335
139	0xbc5c7f94	-0.013458151
140	0xbcc85157	-0.024452848
141	0x3d11bac0	0.03557849
142	0x3d2793ac	0.040912315
143	0x379f0000	1.8954277e-05
144	0x3d440a58	0.047861427
145	0xbcb54a8d	-0.022130275
146	0x3c6afd90	0.014342681
147	0x3cd65e88	0.026168123
148	0xbcb92a53	-0.02260319
149	0x3ce31ef8	0.027724728
150	0x3d005718	0.03133306
151	0xbd48ebe4	-0.049053088
152	0x3c8458a0	0.016155541
153	0xbd487e61	-0.04894865
154	0x3c853de8	0.01626487
155	0x3cd295e8	0.025706246
156	0x3d312c60	0.04325521
157	0xbcff5197	-0.031166835
158	0x3c08b25c	0.008343305
159	0x3ce5e998	0.028065488
160	0x3cbc9de4	0.023024507
161	0x3d04cbe8	0.032421023
162	0xbc567de8	-0.013091542
163	0xbc3ed678	-0.011647813
164	0x3d013512	0.031544752
165	0x3d1f2f48	0.03886345
166	0x3d095bb0	0.033534706
167	0xbce7be9b	-0.02828913
168	0x3a29f180	0.00064828247
169	0xbd33d11a	-0.043900587
170	0xbc6c0f04	-0.014407877
171	0x3b7f40d0	0.0038948543
172	0x39852100	0.00025392324
173	0xbc934f2e	-0.017982092
174	0x3cb9e670	0.022692889
175	0xbd0a1956	-0.03371557
176	0x3c05a758	0.008157574
177	0x3c0b9800	0.008520126
178	0x3c1d95d8	0.009618245
179	0xbbbd50f0	-0.005777471
180	0x3d0a7ae0	0.03380859
181	0xbc17243c	-0.009224948
182	0xbce7c50d	-0.028292203
183	0x3d0e5404	0.034748092
184	0x3d0b6ffc	0.034042343
185	0x3c25ce38	0.010119967
186	0x3a49a240	0.00076917186
187	0xbcf552a7	-0.029946638
188	0x3d5076e0	0.050894618
189	0x3c9cde6c	0.019149028
190	0xbc223728	-0.009900846
191	0xbca42927	-0.020039154
192	0x3a7b89c0	0.00095954165
193	0x3c362d48	0.011119194
194	0x3cf340f8	0.029694065
195	0x3c5dbe88	0.013534196
196	0xbd0d0789	-0.034431014
197	0xbcbad45a	-0.022806335
198	0xbb886470	-0.0041623637
199	0xbcf81d4e	-0.030287411
200	0xbcfcf313	-0.030877626
201	0xbbc48940	-0.005997807
202	0x3adb4c80	0.0016731173
203	0xbc7f472c	-0.015580934
204	0x3d3be352	0.045871086
205	0xbc31a000	-0.01084137
206	0x3b25bc50	0.0025289245
207	0x3c37d448	0.011220045
208	0xbc6ef498	-0.014584683
209	0x3cce0280	0.025147676
210	0xbcea9420	-0.028635085
211	0x3c41a858	0.011819921
212	0xbc868f32	-0.016425703
213	0xbcc10218	-0.023560569
214	0x3cc60ca4	0.02417595
215	0x3cbd98a4	0.023144074
216	0xbc7d9d95	-0.015479465
217	0x3c866802	0.016407017
218	0x3ab522e2	0.00138196
219	0xbd2599d8	-0.04042992
220	0xbccb460c	-0.024813674
221	0xbd4948d1	-0.04914171
222	0x3c4361b1	0.011925147
223	0xbda469e8	-0.080280125
224	0xbd673791	-0.056449477
225	0xba90a84a	-0.0011036482
226	0xbd318dae	-0.043348007
227	0xbcce1be1	-0.025159778
228	0x3c020a7b	0.007937069
229	0xbd628a42	-0.055307634
230	0xbd29fd5e	-0.041501395
231	0xbc1d6ed8	-0.009608947
232	0xbcf975cf	-0.030451683
233	0x3b51a0cb	0.003198671
234	0xbd80db1c	-0.06291792
235	0xbcb5aecb	-0.022178074
236	0xb9b3b578	-0.00034276745
237	0xbd8c5628	-0.068523705
238	0x3c740069	0.014892676
239	0xbcce7c5c	-0.025205784
240	0x3b1ff5e0	0.0024408028
241	0xbd3a1246	-0.045427583
242	0xbd02d5c1	-0.031942133
243	0xbbafdd50	-0.0053669587
244	0x3cf66210	0.030076057
245	0x3d00e07c	0.031464085
246	0x3d1ba102	0.037995346
247	0xbc8a5cac	-0.016889893
248	0x3c817c74	0.015806414
249	0x37c03000	2.2910535e-05
250	0xbcb1700d	-0.021659875
251	0x3c88bff0	0.016693085
252	0xbd1ee919	-0.038796518
253	0xbd2d4cfc	-0.042309746
254	0x3d309fb4	0.043121055
255	0x3c0f9860	0.008764356

fc1.bias f4 [128]
0	0xbd8eaf3a	-0.069670156
1	0xbb9a9445	-0.004717382
2	0x3d0885aa	0.033330597
3	0x3d1a2949	0.03763703
4	0x3c02d4e1	0.007985325
5	0xbd7770c4	-0.060410276
6	0x3cf8cf84	0.030372389
7	0xbbd8d116	-0.006616722
8	0x3d736849	0.059425626
9	0xbc00602d	-0.00783543
10	0xbc8c9cae	-0.017164554
11	0xbc47f876	-0.012205234
12	0xbd20b051	-0.03923065
13	0xbd742b14	-0.059611395
14	0xbd669b59	-0.056300495
15	0x3c447323	0.011990341
16	0xbd8c6896	-0.06855886
17	0x3c99eb86	0.018789064
18	0xbd63333f	-0.055468794
19	0x3c6a1521	0.014287264
20	0x3d0e946a	0.034809507
21	0xbcba097f	-0.022709606
22	0xbd94732c	-0.0724853
23	0xbd3b98fd	-0.045800198
24	0x3cadc96c	0.02121421
25	0x3d318d4c	0.04334764
26	0xbc6b098c	-0.014345538
27	0xbd57690b	-0.05259041
28	0xbd05d456	-0.032673202
29	0xbcca3f03	-0.02468825
30	0x3d22b490	0.03972298
31	0x3ae75134	0.0017648102
32	0xbcb97764	-0.022639938
33	0x3d6154e9	0.055012617
34	0xbc3338bf	-0.010938822
35	0x3c645ff0	0.013938889
36	0xbd8daa84	-0.06917289
37	0xbd3c45ce	-0.04596501
38	0xbd902df6	-0.07040016
39	0x3ca107b6	0.019656997
40	0x3d1bce70	0.03803867
41	0xbd3983e0	-0.04529178
42	0x3dbfae4a	0.09359415
43	0x3cdc4078	0.02688621
44	0x3ca091ba	0.019600738
45	0xbd5c6105	-0.053803463
46	0x3d558b68	0.0521349
47	0x3bfdf99c	0.007750703
48	0xbc5f13ba	-0.013615543
49	0x3d95f23d	0.07321594
50	0xbc9c1c58	-0.019056484
51	0xbd5306ce	-0.05152016
52	0x3d4f9b93	0.050685477
53	0xbd40dca1	-0.047085408
54	0xbd673f5c	-0.05645691
55	0xbd01c74c	-0.031684205
56	0x3d960683	0.07325461
57	0x3c0a4c03	0.008440974
58	0x3d34b36a	0.044116415
59	0xbd9f7b50	-0.07787192
60	0xbd1d3373	-0.038379144
61	0xbc83da9c	-0.016095452
62	0xbd4ab12b	-0.049485367
63	0x3d6d1c50	0.05788833
64	0x3d184387	0.037173774
65	0x3cdd0e25	0.026984284
66	0x3aaa7cf5	0.0013007211
67	0x3d55be9b	0.05218373
68	0xbb6787be	-0.0035328711
69	0x3c207a65	0.009794806
70	0x3c71722a	0.0147366915
71	0xbd70d4c6	-0.058796667
72	0xbc001c95	-0.0078193145
73	0xbd2331f6	-0.03984257
74	0xbb787484	-0.0037911246
75	0x3cde77ba	0.0271567
76	0x3da1d278	0.07901472
77	0xbd25bcbb	-0.04046319
78	0x3d86fb2c	0.06590876
79	0xbd862f7f	-0.06552028
80	0x3cb5668d	0.022143627
81	0xbd51f852	-0.051262207
82	0x3cdb86b8	0.026797637
83	0x3c640c30	0.013918921
84	0xbbcd9e58	-0.0062749796
85	0xba11d4de	-0.0005563031
86	0x3d802353	0.062567376
87	0xbc897500	-0.016779423
88	0xbd123f83	-0.0357051
89	0x3cf1275c	0.029437713
90	0x3c10e130	0.008842751
91	0xbb0632ca	-0.002047705
92	0x3d174165	0.0369276
93	0x3d28f95a	0.041253425
94	0x3af791b2	0.0018888025
95	0x3c869222	0.016427103
96	0xbcdd8e3f	-0.027045367
97	0xbd774910	-0.060372412
98	0xbd083972	-0.03325791
99	0xbd94d5ce	-0.072673425
100	0xbcb65481	-0.022257091
101	0xbcb1e49f	-0.02171546
102	0xbd2a5332	-0.041583247
103	0xbd4c9bbf	-0.04995322
104	0x3d89fc28	0.06737548
105	0x3d0c390e	0.0342341
106	0x3b871d51	0.004123368
107	0x3d896839	0.06709332
108	0xbcbaf0c9	-0.022819893
109	0x3d8a7bc6	0.06761889
110	0x3d5bae80	0.053633213
111	0x3d0916b2	0.03346891
112	0x3c02a722	0.007974418
113	0xbd33b10f	-0.043870028
114	0x3c3f216c	0.011665683
115	0xbbee9640	-0.007281095
116	0x3ca160df	0.019699512
117	0x3d9c440b	0.07630166
118	0xbbf101b4	-0.0073549394
119	0xbb0f4107	-0.0021858828
120	0xbce90a8e	-0.028447416
121	0x3d105080	0.03523302
122	0xbd7ecb4b	-0.062205594
123	0x3dad8f81	0.08474637
124	0xbc401312	-0.011723297
125	0xbd570e11	-0.05250365
126	0xbd3d8d2f	-0.04627722
127	0xbcbf58c9	-0.023357766

fc2.weight f4 [64, 128]
0	0x3d642c42	0.05570627
1	0x3d68e1e0	0.056856036
2	0xbcb7941f	-0.022409497
3	0x3cfa687f	0.030567406
4	0xbd95d36f	-0.073157184
5	0xbccd8024	-0.025085516
6	0xbd659a3f	-0.056055304
7	0xbd57c0b7	-0.05267402
8	0xbc17cce5	-0.009265159
9	0x3d9ee87f	0.07759189
10	0xbb3db180	-0.002894491
11	0x3d8a72c0	0.06760168
12	0x3c65e028	0.014030494
13	0x3c371008	0.011173256
14	0x3c665007	0.014057166
15	0xbdb4ba52	-0.088246
16	0xbd24e690	-0.040258944
17	0xbd4a865f	-0.049444553
18	0x3c061de0	0.008185834
19	0xbdb1b935	-0.086779036
20	0xbddb8938	-0.10719532
21	0xbce78599	-0.028261947
22	0xbc964a14	-0.01834587
23	0xbd83fee6	-0.064451024
24	0x3d2cfbdd	0.042232383
25	0x3d89bf55	0.06725947
26	0xbda4d4b0	-0.080483794
27	0xbd922dd4	-0.07137647
28	0x3cce3f0c	0.025176547
29	0x3d9e8957	0.07741039
30	0xbd173e93	-0.03692491
31	0xbdb5ff02	-0.088865295
32	0x3d134fc0	0.035964727
33	0xbd02bff7	-0.031921353
34	0xbd4626ae	-0.04837673
35	0xbd741663	-0.059591662
36	0x3cafc944	0.021458276
37	0x3d0c8968	0.03431073
38	0xbd0c8c74	-0.034313634
39	0xbcdd87e6	-0.02704234
40	0xbcf04892	-0.02933148
41	0x3d32bc7a	0.043636777
42	0x3d90f01b	0.070770465
43	0x3ca58e4a	0.02020945
44	0x3da09b98	0.07842177
45	0xbc902f98	-0.01760082
46	0xbc9eba37	-0.019375904
47	0x3c9bcaa8	0.019017532
48	0x3d821fa6	0.06353693
49	0xbd904633	-0.070446394
50	0xbd79d514	-0.060994223
51	0x3d9fa52f	0.07795178
52	0xbb4bed41	-0.0031116756
53	0x3d8eabf0	0.06966388
54	0xbd84fb76	-0.06493275
55	0x3c8dc32c	0.01730498
56	0x3ca9db92	0.020734582
57	0x3d5ace44	0.053419366
58	0x3b8ebe8a	0.00435621
59	0x3b1d1940	0.002397135
60	0xbcf631f1	-0.03005311
61	0x3d6142a8	0.05499521
62	0x3d070767	0.032966044
63	0xbddd5421	-0.10807062
64	0xbdc3bcf5	-0.09557525
65	0x3d885538	0.06656879
66	0xbdd76dcb	-0.10518988
67	0xbd648082	-0.055786617
68	0xbd77c9ad	-0.060495067
69	0xbcc1f4a8	-0.023676232
70	0xbd056f19	-0.032576654
71	0xbc4a56c0	-0.012349784
72	0xbd2e819d	-0.042604078
73	0x3d90dc2d	0.07073245
74	0x3d6338bb	0.055474024
75	0x3cfbf402	0.030756
76	0x3d0a0e16	0.03370484
77	0x3bfba0cb	0.00767908
78	0x3d7573c5	0.05992486
79	0xbd6b27fd	-0.057411183
80	0xbda6fb42	-0.081533924
81	0x3daf59ef	0.08562075
82	0xbcadb6c0	-0.021205306
83	0xbd4a7ee2	-0.04943741
84	0xbdbbe0e2	-0.09173752
85	0xbc99a568	-0.01875563
86	0xbc936e3e	-0.017996904
87	0xbdac0a36	-0.08400385
88	0x3c5b8bc1	0.013400019
89	0xbdb3a316	-0.087713405
90	0x3d845651	0.06461776
91	0xbd86c0ef	-0.06579768
92	0x3d416d7d	0.047223557
93	0xbdf85345	-0.121252574
94	0x3da75791	0.08170999
95	0xbd8f3062	-0.0699165
96	0xbd61c9de	-0.055124156
97	0x3dade49b	0.08490869
98	0xbc61d02c	-0.013782542
99	0xbd9d2807	-0.0767365
100	0x3d785ce2	0.060635455
101	0xbbc74460	-0.006081149
102	0x3d89d84f	0.06730711
103	0xbd0ed3d8	-0.03487
104	0x3d7e99ff	0.06215858
105	0xbb9f0ab3	-0.0048535704
106	0x3d70c18f	0.05877834
107	0xbdaad483	-0.08341315
108	0x3d841c76	0.06450741
109	0x3c5dfdd8	0.013549291
110	0xbdaddc91	-0.08489335
111	0x3d467b8b	0.048457664
112	0x3d6bdc22	0.057582982
113	0x3c97f9a6	0.018551659
114	0xbdc2c40f	-0.095100515
115	0x3d24a422	0.04019559
116	0x3cffcbd0	0.031225115
117	0x3cdcc737	0.026950462
118	0x3cb0c024	0.021575995
119	0x3d902b29	0.07039482
120	0xbdacbba8	-0.0843423
121	0xbd4fd399	-0.050738905
122	0x3b359780	0.002770871
123	0xbda19606	-0.07889943
124	0x3a7b85b9	0.00095948164
125	0x3d8a4e09	0.06753165
126	0x3d9081ae	0.070559844
127	0x3d9b946b	0.07596668
128	0x3c2632d8	0.010143958
129	0xbdcddd18	-0.10051936
130	0xbc6f2e30	-0.014598414
131	0xbb7cd880	-0.0038581192
132	0x3cad3ebc	0.021148078
133	0x3d7c7d1a	0.061642744
134	0xbd5d5e96	-0.054045282
135	0xbd65a893	-0.056068968
136	0xbd98f4a1	-0.07468534
137	0xbd3e8872	-0.046516843
138	0xbd62d703	-0.055380832
139	0x3daea537	0.08527606
140	0xbbc21220	-0.005922571
141	0x3bbe3780	0.005804956
142	0x3c1dcd60	0.009631485
143	0x3c9b866c	0.018984996
144	0x3d450dc6	0.04810884
145	0xbd015632	-0.031576343
146	0x3d8d49af	0.0689882
147	0xbd317906	-0.043328308
148	0xbdade25e	-0.08490442
149	0x3cfab7b4	0.030605175
150	0x3d9f79c7	0.07786899
151	0x3d3f1ad2	0.046656437
152	0xbda1072d	-0.07862697
153	0xbc8a475d	-0.016879732
154	0x3d3c6cb2	0.046002097
155	0xbd88b92a	-0.06675942
156	0x3cb63ba4	0.022245236
157	0x3c2c9410	0.010533348
158	0xbd6aeb44	-0.057353273
159	0x3d96a63f	0.07355928
160	0xbdaea4a9	-0.085275
161	0xbd9f9b17	-0.07793253
162	0xbd1f6b96	-0.03892096
163	0xbcba5a75	-0.022748211
164	0x3db0661f	0.08613228
165	0xb9991400	-0.00029197335
166	0xbd7ba2b6	-0.06143447
167	0x3d848cad	0.06472144
168	0xbd8f162a	-0.06986649
169	0xbd517796	-0.051139437
170	0xbcd740af	-0.02627596
171	0x3d40df86	0.04708817
172	0xbd224e31	-0.03962535
173	0x3d151692	0.036398478
174	0xbd8fea11	-0.070270665
175	0xbd462626	-0.048376225
176	0x3d996b87	0.07491212
177	0xbda1f77e	-0.079085335
178	0xbd888385	-0.0666571
179	0x3d67a44e	0.056553178
180	0xbc867f1d	-0.016418034
181	0x3c85af80	0.016319036
182	0x3d43226a	0.04764024
183	0xba19a700	-0.0005861372
184	0x3cdec273	0.02719233
185	0x3c91d3a4	0.017801113
186	0xbce9d00a	-0.028541584
187	0x3d731e5e	0.059355132
188	0xbd69746f	-0.056995805
189	0x3d2d8a52	0.04236824
190	0x3bde2f90	0.0067805722
191	0x3d3289f2	0.043588586
192	0xbd9e5d66	-0.07732658
193	0x3d80fc55	0.062981285
194	0x3c4af408	0.012387283
195	0xbccbd734	-0.02488289
196	0xbd84b8b1	-0.064805396
197	0xbc0f0370	-0.008728847
198	0xbc2dac90	-0.010600224
199	0x3d02401c	0.03179942
200	0x3cd7f7ec	0.026363336
201	0xbd305a12	-0.043054648
202	0x3d08d9c8	0.033410817
203	0xbd2f9916	-0.042870604
204	0x39ed41d7	0.00045253217
205	0xbd9cd572	-0.07657899
206	0xbd03ee9d	-0.03220998
207	0xbd64b56f	-0.05583709
208	0x3d46a494	0.048496798
209	0xbce4cace	-0.027928736
210	0x3d98aa91	0.07454408
211	0xbbcbab90	-0.00621552
212	0x3d953f2b	0.07287439
213	0xbd7fe3e2	-0.062473185
214	0xbd4160fb	-0.04721163
215	0xbd621dcb	-0.055204194
216	0xbca83c9c	-0.020536713
217	0x3d841f23	0.06451251
218	0x3d7fbc92	0.062435694
219	0x3da1cab7	0.07899993
220	0xbdab4365	-0.08362464
221	0xbc6d0cfa	-0.014468426
222	0xbd94bf42	-0.07263042
223	0x3c8ab55c	0.016932182
224	0x3da33291	0.07968629
225	0x3cf7fc7c	0.030271761
226	0xbd0f14ed	-0.034932066
227	0xbd1d2bbf	-0.038371798
228	0x3d46c006	0.04852297
229	0xbdae8df7	-0.085231714
230	0x3db10669	0.08643801
231	0x3d98c001	0.07458497
232	0xbd89c2aa	-0.06726582
233	0xbbc88170	-0.006118946
234	0x3d855961	0.06511188
235	0x3d2b17ab	0.04177062
236	0xbcab67d8	-0.02092354
237	0xbc84fd0c	-0.016233943
238	0xbd8f3a1e	-0.06993507
239	0x3bf7bf20	0.0075606257
240	0x3ce8b4bc	0.028406493
241	0x3d20731a	0.03917227
242	0xbd47d675	-0.048788507
243	0x3da584dd	0.08081982
244	0xbd72f9f0	-0.05932039
245	0xbccb6da8	-0.024832562
246	0x3d6bf7d6	0.0576094
247	0xbd99648b	-0.0748988
248	0xbd451957	-0.04811987
249	0x3c3ca750	0.0115145
250	0xbd8a3f79	-0.06750388
251	0xbd83cac6	-0.0643516
252	0xba5be500	-0.00083883107
253	0x3daac1c5	0.0833774
254	0xbc0d6718	-0.0086305365
255	0xbda18fcc	-0.07888755

fc2.bias f4 [64]
0	0xbcc41457	-0.02393548
1	0xbdb02809	-0.08601386
2	0x3d3a6b6e	0.04551261
3	0x3e3fcf45	0.18731411
4	0x3e5f3ab4	0.21799737
5	0x3e1abfa8	0.15112174
6	0xbc8dda39	-0.01731597
7	0x3ca8111b	0.020515969
8	0x3cdb6dfe	0.026785847
9	0x3e322311	0.1739619
10	0x3e234db6	0.15947613
11	0x3d13a16a	0.03604261
12	0x3debfcfb	0.115228616
13	0x3d35b0dd	0.044358123
14	0x3de8171b	0.11332532
15	0x3d27a87a	0.040932156
16	0xba3afb13	-0.000713275
17	0x3bfd9501	0.00773871
18	0x3e10cd70	0.14140868
19	0x3e0421cf	0.12903522
20	0x3e045404	0.12922674
21	0x3d561e35	0.0522749
22	0x3e03f594	0.1288665
23	0x3e3f1f2e	0.18664238
24	0xbd776fe7	-0.060409453
25	0xbdc0cab6	-0.09413664
26	0x3e7ba51b	0.24574701
27	0x3e3411a6	0.17584857
28	0x3e2b0dcd	0.16704483
29	0xbd106b2c	-0.035258457
30	0xbd3c003b	-0.045898657
31	0xbd6c0c9a	-0.057629205
32	0xbd290161	-0.04126108
33	0x3e229b37	0.15879522
34	0xbd855e0a	-0.06512077
35	0xbd85c7d2	-0.06532253
36	0x3d846483	0.064644836
37	0xbb953006	-0.004552844
38	0xbd9c45ee	-0.076305255
39	0x3d3392e1	0.043841247
40	0x3e30e595	0.17275079
41	0xbb1108ed	-0.0022130564
42	0xbd6117cc	-0.054954335
43	0x3e3daf2d	0.18523856
44	0x3df0d96d	0.11760221
45	0x3e4b20cb	0.19836728
46	0x3e0d5e95	0.13805611
47	0x3e3639e0	0.17795515
48	0x3d034f9c	0.032058343
49	0xbd1a111f	-0.037613984
50	0x3e88e148	0.26734376
51	0x3db70f55	0.08938471
52	0x3e0cd39d	0.13752599
53	0xbd865436	-0.06559031
54	0x3e130fc6	0.14361486
55	0x3e02c125	0.12768991
56	0x3e541a29	0.20713104
57	0x3d96c389	0.07361514
58	0xbd274407	-0.04083636
59	0x3d1e1085	0.038589973
60	0x3db57844	0.088608295
61	0x3e1f1960	0.15537024
62	0x3e4a6891	0.19766451
63	0xbd8db0de	-0.069185

fc_output.weight f4 [2, 64]
0	0xbc0b56d7	-0.008504591
1	0xbcb7fe42	-0.022460107
2	0xbdc707a5	-0.09718255
3	0x3d95760d	0.07297907
4	0x3cbd7939	0.023129093
5	0xbd27358f	-0.04082256
6	0xbc7c5557	-0.015401206
7	0x3e3f0f8e	0.18658277
8	0xbdcfbffc	-0.1014404
9	0x3dab6a1e	0.083698496
10	0xbde7aba8	-0.11312038
11	0x3dc05736	0.09391634
12	0xbd0ae042	-0.033905275
13	0xbe13a04d	-0.14416619
14	0xbda2954e	-0.07938634
15	0xbb8b10f2	-0.0042439634
16	0x3bb65526	0.0055643497
17	0x3da90aa5	0.082539834
18	0xbcac780d	-0.021053338
19	0x3df98466	0.12183456
20	0xbd9c1342	-0.07620861
21	0x3e60a6ba	0.21938601
22	0xbc94ce63	-0.01816482
23	0xbd0de87e	-0.03464555
24	0x3d879ed4	0.06622091
25	0x3dc73857	0.09727543
26	0xbc919d90	-0.017775327
27	0x3d3396df	0.043845054
28	0x3c2e4b01	0.0106379995
29	0x3d387e57	0.045042362
30	0xbd521b5f	-0.051295634
31	0x3dc8102f	0.09768712
32	0x3d84a004	0.06475833
33	0x3c232cbf	0.009959399
34	0x3ce3a246	0.027787339
35	0xbdb2cc37	-0.08730357
36	0xbe05bbcc	-0.1305992
37	0x3ca3a781	0.019977333
38	0x3cfd1182	0.030892137
39	0x3e86277a	0.26201993
40	0x3d6e887a	0.058235623
41	0xbdb62088	-0.088929236
42	0xbd38dc59	-0.045132015
43	0x3b6ce09e	0.0036144624
44	0xbd4e63da	-0.050388195
45	0x3dcabcf9	0.09899325
46	0x3da708ca	0.08155973
47	0xbcb35ccf	-0.02189484
48	0x3dba2bac	0.09090361
49	0x3da24d29	0.079248734
50	0x3c864dde	0.016394552
51	0xbda75394	-0.08170238
52	0xbd07d460	-0.03316152
53	0x3dfb3728	0.122663796
54	0xbce65289	-0.028115528
55	0xbc43dbcd	-0.01195426
56	0x3c00d15a	0.007862413
57	0xbdf467c4	-0.11933854
58	0x3cd6fda0	0.026243985
59	0xbd653eef	-0.05596822
60	0xbdfe0218	-0.12402743
61	0x3d0cb8ca	0.034355916
62	0x3d76a5d3	0.060216736
63	0xbd5f650a	-0.054539718
64	0xbd69cd8e	-0.057080798
65	0x3d642af5	0.05570503
66	0x3c0ef7af	0.008726045
67	0x3e22728c	0.15864009
68	0x3dfbfbdc	0.12303898
69	0x3e02a8b9	0.12759675
70	0x3b82d456	0.0039925976
71	0x3c7a7b8f	0.015288248
72	0xbc5f0437	-0.013611845
73	0x3e06f80c	0.1318056
74	0x3e154a06	0.14579019
75	0xbdb45518	-0.08805293
76	0x3dc83c42	0.09777118
77	0x3dfb0c46	0.122582
78	0x3e0f889b	0.14016955
79	0xbd5f2d62	-0.05448664
80	0xbdb96ca6	-0.09053926
81	0xbc8fb0cd	-0.01754036
82	0x3e16935d	0.14704652
83	0x3e1fa7a9	0.15591301
84	0x3e04d09e	0.12970206
85	0xbd6d46f1	-0.057928983
86	0x3e2c80e2	0.1684604
87	0x3e0bb52e	0.13643333
88	0x3b9682e7	0.0045932415
89	0xbd3d9010	-0.046279967
90	0x3dc21f7c	0.094786614
91	0x3e28b624	0.16475731
92	0x3dc281d4	0.09497419
93	0xbde53503	-0.11191752
94	0x3b65ecaf	0.0035083701
95	0xbda44745	-0.08021406
96	0xbda17529	-0.07883675
97	0x3e183cfc	0.14867014
98	0x3dc9e7fb	0.098587
99	0xbdd0af93	-0.10189738
100	0x3dc7b6e1	0.09751678
101	0xbdcada3b	-0.099049054
102	0x3acbaf11	0.0015539845
103	0xbd1a2de2	-0.037641414
104	0x3e27db12	0.16392162
105	0xbc569f73	-0.013099539
106	0xbdfe10d7	-0.12405556
107	0x3daf5a7c	0.085621804
108	0x3e3ce542	0.1844683
109	0x3eaf3c64	0.34225762
110	0x3e18c7cb	0.14919965
111	0x3dcf71fa	0.10129161
112	0xbdcfbd25	-0.10143498
113	0x3db82f24	0.08993366
114	0x3debf6af	0.115216605
115	0x3e079176	0.13239083
116	0x3dea46ff	0.11439323
117	0xbddaba88	-0.10680109
118	0x3e247f5a	0.16064206
119	0x3e0b2d92	0.13591602
120	0x3e08f853	0.13375978
121	0x3c70d0ef	0.014698251
122	0xbd145ef9	-0.036223385
123	0xbce501c7	-0.027954949
124	0x3d82b450	0.06382048
125	0x3e19cc28	0.15019286
126	0x3e2109c1	0.15726377
127	0xbde31ed8	-0.11089867

fc_output.bias f4 [2]
0	0x3d280919	0.0410243
1	0x3e8222a6	0.2541706
