track_2_model_color.pt (torch_old, 298511 bytes, 12 tensors)

cnn1.weight f4 [32, 3, 5, 5]
00000000: e2c8 1bbe 8b8f eabc ad7d 0e3d 6728 d1bd
00000010: a06e 4fbe 16e4 eb3d a158 273d 78c8 1339
00000020: 373a e73d f339 973d d2bb 04be 5c9e c93d
00000030: 5637 b13d 0fb4 c6bc f824 ba3c 4a53 0dbe
00000040: 24f3 efbd d9e9 07bd dc14 2bbd 9b4b 28be
00000050: 865d b33d 7f90 5abd 9a61 f9bd 9372 183e
00000060: 9dc8 a73b 02d5 21bd b523 5fbd 3f2f 603d
00000070: 0483 073d 4fae 00bd 983d 44be 2d30 203d
00000080: 4546 e93d fc55 afba fde8 4a3d da2e 6abd
00000090: d498 1d3e 2815 073d 2f4e 10bd fcbf 50bd
000000a0: 1383 af3d 1a4c bcbd 3da5 843d 544c 823d
000000b0: 7b01 87bd 1b2f e3bd 35fd 00bd c56c a03d
000000c0: 2cb6 26be 6b85 08be 45d0 c83d 8531 c33d
000000d0: 81d9 19bd d257 10bc 1fa2 90bb 483a ae3d
000000e0: 522e 1bbd ad1a 213e 3d62 75bc e8e7 cc3d
000000f0: 6025 e0bd 78f0 553d 0cf1 83bd c180 60bd
00000100: 0898 07bd 7d65 f13d 3bd8 e8bd ff20 d13d
00000110: 6572 4cbd d89c 853b d37b cb3d c5e8 8bbc
00000120: b920 e93d 85ea 123d 3396 763c 948c 1dbe
00000130: 23b9 bebd 9f45 31be 5d62 bebd 3280 303d
00000140: f444 bebd 3693 153d 35eb 0ebd 508f b5bd
00000150: 3008 4ebc 022d 173e f038 533d 03db 98bd
00000160: 9138 433d 63b0 f3bc 31bf debc bbf0 b1bc
00000170: eac3 9fbd 5443 a1bd b9ed 3d3d 4c38 a93d
00000180: b3dc cb3d 21f2 0f3e 87c5 26bd e005 393e
00000190: c894 623c 49a1 c3bc 6b2a 1bbc 0b04 813d
000001a0: 0dc9 e23d f1b1 f5bc 513b efbd 40bf 0e3d
000001b0: ef76 febc 7e4b 0cbe d668 dbbd 4e4b cd3d
000001c0: ec58 ff3c af22 7abd 9edb 1e3d d644 173c
000001d0: af0d 193d 6c74 013e ccaa 0b3e 8a5e 53bc
000001e0: 6282 3f3d 2f16 463d 8ffc e1bd f84b d5bc
000001f0: 7ace efbd 2d8c 86bd a553 0b3e 80d4 eb3d
00000200: 4b87 dd3d 69ce fd3d e0a1 343d 128c debd
00000210: aa29 493d aee8 00be 3d24 e4bd 78aa fc3d
00000220: 99e0 bc3d 3243 a53d c770 ba3d 0803 cebb
00000230: 8c4a bbbd 5da4 79bc 58e1 3a3d 10a9 9e3d
00000240: a391 2b3d 8c50 1ebe 8d4d 95bb b9a0 aa3d
00000250: 0142 3fbd ce9b d2bd 46ee dbbc 8d23 a0bd
00000260: 89bd 093e bb98 44bd 943c 26bd db1c a23d
00000270: ead1 bdbd 8b20 eebd 9285 d83c 4560 b0bd
00000280: 16bb 433d 5cbe e03d 9e90 cc3c 2f1d 2bbc
00000290: 3ade fbbc eb7b 0fbe 2881 293b 48b6 0a3e
000002a0: f131 ffbc 6b70 1ebe ad48 b73d c55c 233d
000002b0: c88e 713c 0ce4 ab3d fb9e 893d 6874 43be
000002c0: 68d7 923d 5473 c3bd 0fcd 07be faa2 c03d
000002d0: 7fd2 b9ba da0c 8c3d db74 2abc 3498 99bd
000002e0: 8ea5 42bd df78 4abd 28a7 943d c343 b63c
000002f0: d4c0 a63d 5c37 fb3d a454 fbbd 9d77 f2bd
00000300: ccce 2c3c aa67 07be f692 95bd a0ad 07bc
00000310: e897 b4bc 853f 623d d02c 713d 227e 21be
00000320: fcfb 97bd 7b93 043e e359 e23d fa1d a73d
00000330: 8fb1 733d 4547 953d 5369 a0bd 51b3 b7bd
00000340: 0111 253d 29c6 70bd 644c 553c 5e24 c33d
00000350: 277c 853d b6e5 34bd 5ed2 893a 4bdc 303d
00000360: 8103 273b 70dd c83d 629a 1d3d 30f4 383d
00000370: 965e 1cbd 0e26 d93d a361 b63c 814e a9bc
00000380: f00a a63d ccb6 debd b3de a73d e743 0cbd
00000390: bd87 6c3d d191 7dbd d4d6 26bc 7056 47bd
000003a0: 48d2 233d 8da6 f2bc 6493 60bd ae00 803d
000003b0: bd6b 93bc da09 eb3c 75b1 e2bd 03b4 23bd
000003c0: dc74 8e3d 558a 323d c8d7 49bd b1fa 433d
000003d0: 9e29 58bd f380 cebd ba92 94bd 2493 6a3c
000003e0: fbeb 38bd c952 823d 557f 53bc 7ad8 bd3d
000003f0: 2cce 6ebc 9bcf ba3d 9d53 87bd e4c9 3d3d
-0.1521335 -0.0286329 0.034787823 -0.10212784 -0.20257044 0.11518113 0.040856007 0.00014093693
0.112904005 0.073841 -0.12962273 0.09844658 0.086531326 -0.02425578 0.022722706 -0.13801304
-0.11716297 -0.033182 -0.04176794 -0.16435091 0.087580726 -0.05336046 -0.12176819 0.14887457
0.0051203505 -0.03950978 -0.054477412 0.054732557 0.03308393 -0.031416234 -0.19164121 0.039108444
0.11390356 -0.0013377066 0.0495386 -0.057173587 0.1539033 0.03297916 -0.03523081 -0.05096434
0.08569922 -0.09194203 0.06476829 0.06362215 -0.06592079 -0.11092969 -0.031491477 0.07833246
-0.1628043 -0.13332145 0.09805349 0.095309295 -0.037560944 -0.0088100005 -0.0044138576 0.0850721
-0.03788597 0.15732832 -0.014977035 0.1000517 -0.10944629 0.052231282 -0.064424604 -0.05481029
-0.033103973 0.117869355 -0.11369368 0.10211372 -0.049913783 0.004077535 0.09935727 -0.017078767
0.113831945 0.035868187 0.015050459 -0.15385658 -0.09312656 -0.17311715 -0.09296105 0.043091007
-0.092904955 0.036517344 -0.03489228 -0.08865225 -0.012575194 0.14763263 0.05156797 -0.07463648
0.047661368 -0.029747194 -0.027190777 -0.021721235 -0.078010395 -0.0787417 0.046369288 0.08262691
0.099542044 0.14057209 -0.04071572 0.18068647 0.0138294175 -0.023880618 -0.009470562 0.06299599
0.11073504 -0.029992076 -0.116812356 0.03485036 -0.031062571 -0.13700673 -0.10713355 0.10024129
0.031170331 -0.061068233 0.038783662 0.00923272 0.037366565 0.12642068 0.13639373 -0.012900958
0.046755202 0.048361 -0.110345 -0.026037201 -0.11709304 -0.06569705 0.13606127 0.115151405
0.10816821 0.12392885 0.04409969 -0.1086656 0.049112 -0.1258876 -0.111397244 0.12337202
0.09222526 0.08069457 0.09103542 -0.0062869824 -0.09145078 -0.015236941 0.04562506 0.0774709
0.041886937 -0.15460414 -0.004556364 0.08331437 -0.046693806 -0.10283624 -0.026847016 -0.07819281
0.13451208 -0.047997218 -0.040585116 0.0791566 -0.092685536 -0.11627301 0.026430879 -0.08612112
0.04778584 0.10973808 0.024971303 -0.01044397 -0.030745614 -0.14012115 0.0025864337 0.13546097
-0.031151744 -0.15472572 0.08949409 0.039883394 0.014743514 0.08393106 0.06719776 -0.19087374
0.07169992 -0.095434815 -0.13261817 0.09406085 -0.0014177113 0.06838389 -0.010403837 -0.074997336
-0.047521167 -0.049431678 0.07258445 0.022249108 0.08142248 0.12266418 -0.12272003 -0.11839221
0.010547351 -0.13223138 -0.07303421 -0.0082811415 -0.02204509 0.05523636 0.058880627 -0.15770772
-0.07421109 0.12946884 0.11052301 0.081600145 0.059495505 0.07288984 -0.07832589 -0.08969749
0.04029942 -0.05878273 0.013018701 0.09528421 0.06517821 -0.044164382 0.0010514965 0.043178838
0.0025484266 0.09807861 0.03847731 0.04515475 -0.03817614 0.106029615 0.022263354 -0.020667316
0.08107555 -0.108747095 0.081967734 -0.034244444 0.057746638 -0.06190664 -0.010183055 -0.048666418
0.03999546 -0.029620433 -0.054828063 0.0625013 -0.01799571 0.028691221 -0.110690035 -0.039966594
0.06955883 0.043588955 -0.04927805 0.0478465 -0.052774064 -0.10083189 -0.07254548 0.014317308
-0.045146924 0.06363446 -0.012908776 0.09269805 -0.014575522 0.09121629 -0.06607745 0.046335116

cnn1.bias f4 [32]
00000000: 26f1 5abc a311 62bd 4455 393c a592 c8bd
00000010: 7954 31be 695a 413d 48c3 e73a 4775 61bd
00000020: 11f6 953c d6e9 723d bab9 c4bd 8173 09be
00000030: adfe 1abe f7e8 7b3d d5f6 4abd fa22 253e
00000040: cfd8 b4bd a6ec 7abc 7154 1a3e 617a 23be
00000050: 3e78 bc3d 14e3 8c3c 3563 14bd 447d 64bd
00000060: 36f4 93bd 0b36 3e3c 89b7 d4bd ce64 93bd
00000070: feb4 1a3e 04cf 3fbd d86f 2d3e ac1b 513d
-0.013363158 -0.0551926 0.011311833 -0.09793595 -0.1731738 0.047205362 0.00176821 -0.055043485
0.01830581 0.059305035 -0.09605737 -0.13422967 -0.15136214 0.06150147 -0.049551804 0.16126624
-0.088304155 -0.01531521 0.15071274 -0.15964653 0.09202622 0.017198123 -0.036227424 -0.055783525
-0.07224314 0.011609565 -0.10386569 -0.07196961 0.15108106 -0.046828285 0.16937196 0.05105178

cnn2.weight f4 [32, 32, 3, 3]
00000000: 6b65 873c 32ec 2e3d 04c6 463c ca65 2c3a
00000010: cec8 c9bb cbf8 3bbd f00d d6bc 9021 acbd
00000020: 7d84 b1bd 0d7f 8dbd 0b15 bc3c 5d02 b4bb
00000030: 99a3 8a3b 6bb2 e43c b6ab 06bd 5c1a 9c3d
00000040: d51b 6dbc a75d a63d 8206 a1bc 589e 9fbd
00000050: 2833 7ebd aa31 43bd c588 8e3c a2ce 2abb
00000060: 298c 9cbd 1dbd a3bd 2089 92bc b0b9 9e3c
00000070: cf68 3dbc a687 12bd a71a febc 945d 12bd
00000080: e65c 2fbd aec8 423d b552 12bc d626 04bd
00000090: 5690 8dba 6ce3 273d 7a6c 52bc c53a 273e
000000a0: 2ea5 b73d a8af e53d d0da d33a bcf3 ab3c
000000b0: 06e2 b13d 0398 c03d e8a7 7abb d47e 8a3d
000000c0: 3959 ca3d 53e9 e93c b0e9 53ba 9f25 f5bc
000000d0: 9542 ba3b ac64 2cbb 6ff3 ab3c 0625 c1bc
000000e0: 7d48 4a3d d918 69bc 914b 31bc 81c6 11bd
000000f0: 875c e83c 20cf 61bd 1060 e23c 9fe1 da3d
00000100: 8fa0 123d ede2 723d b8c7 09be e8b3 c3bd
00000110: 5bf9 83bd 5ab9 3f3d 9fdc edbb 6a36 1a3c
00000120: f313 bd3c cc20 353d 094d cd3d d002 913b
00000130: e705 1abe 46c1 eebd a4d5 bf3d 3c2e 1b3d
00000140: 7dc6 ef3c 118e 78bd b737 74bb c86e 863a
00000150: 2ef3 6cbc 6735 e6bc adca 4d3b d40c 613d
00000160: fc6a dbbc 260d ab3c 64ea e5b9 4d6e fb3c
00000170: 2d42 bbbc 6ca9 c8bc 4db9 f4bb 5122 95bc
00000180: 7096 bd3c bd46 003c 9454 8a3c db64 aabc
00000190: 47a7 c8bd 35da 8dbd 0271 96bd 7837 78bc
000001a0: 5775 203d 9ee9 3f3b 4914 593d ec7e 863d
000001b0: a500 083d cd98 47bc c31d 483c 4177 f83b
000001c0: c7ee c13d 2773 c03c 605e c7bc d41b c23d
000001d0: 0984 1abc 12e6 d7bc e39a 8fbd 2d61 debd
000001e0: aac8 323c 76f5 413d 4c31 71bc a98e 813d
000001f0: f5ec e33c 642c 9f3d 01f3 873d 53cb 663d
00000200: 494a a93d 0852 383b d183 a6bc e5d0 bebd
00000210: 06c6 0bbc 1388 b23d c304 8f3d 8ce1 4c3d
00000220: f3d6 edbc e748 893d 2fbe 95bd d218 95bc
00000230: 3508 cfbd 6d15 1cbe 4612 4abc 0987 edbc
00000240: d64d 6ebd 9a3a 58bd 93e0 4b3d 3ab6 fabb
00000250: 9c8a 1dbd 4aba 2abc 2cb9 333c bab1 d33c
00000260: 27fe 00bd ae14 8bbd 2951 b7bd d0b3 97bd
00000270: 38f0 d6bb ac33 9c3d 9c6c 833d c9c9 69bd
00000280: d522 30bd a72f ddbc 0451 3d3d 34ff 18bd
00000290: 0ed6 433d ab13 bb3d 1510 af3d e577 9c3d
000002a0: 77c0 6abb 81bc 6f3d c273 5c3d 7a8a 853d
000002b0: 597d 4bbd 15bb 733c 3332 2e3d 32bb ad3b
000002c0: 6b87 6e3d c3c1 663d 55e5 fb3a a1b7 acbb
000002d0: 88b3 e2bb 9937 36bc a6f5 9bbc a4d1 babc
000002e0: 5942 0e3d 58a2 49bd 3459 c43d 7b5b 293c
000002f0: f8f7 a83d 79b6 59bd 1685 bdbd 964d 243d
00000300: ef43 aebc 5f6b b43c 5e1a d93b 0d8e 4e3d
00000310: 4e6f db3c 2853 823d 4255 bf3c ce3a 08bc
00000320: 6901 d93c 2fd3 173c 7a44 9abd 0114 88bd
00000330: 01ab 993d 7a8f c73d 0b63 e43d 6cce 3f3d
00000340: a3cc 183d 55a9 383d f7a7 cebc 5b62 943d
00000350: a94b debc 831b 81bc 060d c83c d1e7 08bd
00000360: 05fd 003e 00ea cc3d 9828 2b3d fc77 e83d
00000370: b1f9 803d 1ab7 b83b 19bf 7c3e 8bbb 493e
00000380: bd32 c63d 7e7f 8cbd 1032 7039 ed81 c3bd
00000390: 5280 94bd 54be 223d 88ca 6fbd 6bab 8cbd
000003a0: f798 abbd 733e 5ebc 32e2 153d d605 a4bc
000003b0: f65f e9bc 72a7 413d 0d7a 8b3d 77ea 093c
000003c0: 5a33 ad3d b927 b93c c9ec 553d 93c2 26bc
000003d0: 6b67 77bc 2851 75bc c0e5 3abd a02c 983d
000003e0: 6746 b73d 942e d6bc 66f3 2a3d 4682 0f3d
000003f0: c0f7 12be 16a0 50be 03f7 0bbe 92a6 92bd
0.016527852 0.042705722 0.012132172 0.0006576447 -0.006157971 -0.045891564 -0.026129693 -0.08404839
-0.08667848 -0.06908999 0.022959253 -0.005493446 0.004230928 0.027917108 -0.0328786 0.07622215
-0.014471968 0.081233315 -0.019656423 -0.077938735 -0.062060505 -0.047654785 0.017399201 -0.0026063104
-0.07643921 -0.07995055 -0.017887652 0.019375652 -0.011560633 -0.035773896 -0.031018568 -0.035733774
-0.042813204 0.047554664 -0.008930852 -0.0322636 -0.0010800462 0.04098837 -0.012843246 0.16331013
0.089670524 0.112151444 0.0016163234 0.020990245 0.08685689 0.09403994 -0.0038247053 0.06762472
0.09880299 0.02855364 -0.00080838334 -0.029925166 0.0056842067 -0.0026305122 0.020990102 -0.023577224
0.049385536 -0.014227116 -0.010821239 -0.0355897 0.028364433 -0.05512917 0.027633697 0.10687565
0.03579765 0.059298445 -0.13455093 -0.09555799 -0.06444045 0.046807624 -0.007258966 0.009412387
0.023080802 0.04422073 0.10024459 0.004425384 -0.15041314 -0.11657958 0.093669206 0.03788589
0.029269451 -0.06068236 -0.0037264654 0.0010256404 -0.014462275 -0.028101636 0.0031401322 0.054943874
-0.026784413 0.020880293 -0.00043852918 0.030692244 -0.022858704 -0.02449485 -0.0074683786 -0.01820484
0.023143023 0.007829365 0.016886033 -0.020800045 -0.097975306 -0.06926385 -0.07345773 -0.0151499435
0.039174404 0.0029283534 0.05299786 0.06567177 0.03320374 -0.012182427 0.012214127 0.0075825755
0.09469371 0.023492409 -0.024336994 0.09477964 -0.009430894 -0.026354823 -0.07011964 -0.108583786
0.0109121 0.04735323 -0.014721226 0.063260384 0.02782295 0.07772139 0.06638146 0.05634625
0.08266122 0.0028125066 -0.020326527 -0.09317187 -0.008531099 0.0871736 0.0698333 0.050019786
-0.02903316 0.06703358 -0.07311665 -0.018200312 -0.10108987 -0.15242548 -0.012333458 -0.028995054
-0.0581797 -0.05279026 0.049774718 -0.0076511176 -0.038462266 -0.010420391 0.010969441 0.025841583
-0.03149238 -0.06791054 -0.08951027 -0.074073434 -0.006559398 0.07627043 0.064172 -0.057077203
-0.04300197 -0.027000261 0.04621984 -0.037352756 0.04781156 0.09134611 0.08547989 0.076400556
-0.0035820284 0.05852938 0.053821333 0.06520553 -0.049680088 0.014876147 0.042528342 0.0053018564
0.058234613 0.05633713 0.0019218127 -0.0052709137 -0.0069183744 -0.011121654 -0.019038033 -0.022805043
0.034731243 -0.04922709 0.09587327 0.010336752 0.08250421 -0.053152535 -0.092539 0.040113054
-0.021272628 0.022023855 0.0066254577 0.05042844 0.026786473 0.06363517 0.023356084 -0.008314801
0.02648993 0.009266659 -0.07532592 -0.066444404 0.075033195 0.09744163 0.111517034 0.04682772
0.03730453 0.045083363 -0.025226576 0.07245322 -0.027135687 -0.015760189 0.024420273 -0.033424202
0.1259652 0.100055695 0.04178676 0.1135101 0.06297625 0.005637062 0.24682273 0.19700448
0.09677646 -0.06860255 0.00022906833 -0.09546266 -0.07251038 0.039732292 -0.05854276 -0.06868633
-0.08378785 -0.013564694 0.03659267 -0.020022314 -0.02848814 0.04727883 0.06810389 0.008417717
0.0845706 0.022601949 0.05222777 -0.010178226 -0.01510034 -0.014972962 -0.045629263 0.074303865
0.08948975 -0.026145257 0.04173603 0.035036348 -0.14352322 -0.20373568 -0.13668446 -0.07160677

cnn2.bias f4 [32]
00000000: 79f9 9bb8 0884 baba fd86 fabc da09 72bd
00000010: 39b0 78bd d946 ecbb 6496 0e3d c809 5ebd
00000020: ef4c ba3d b168 833c 440f ca3c c19d 363c
00000030: 05bd 6bbc c514 393c 351d 6fbd 3758 ba3c
00000040: 74b6 07bd f606 513d dccf ffbc 4e27 1e3d
00000050: e7d1 81bd 02ba c2bc 4436 053d 0fd3 32bd
00000060: f535 b23b a4b3 4f3d 43fa 84bd 95fc 133d
00000070: 6415 613d 2d61 303d 4723 36bd 0079 8abd
-7.437444e-05 -0.0014230022 -0.030581946 -0.059091426 -0.060714934 -0.007210594 0.034811392 -0.054208547
0.09096705 0.016041132 0.024665482 0.01114601 -0.0143883275 0.011296456 -0.058377463 0.022747142
-0.033132985 0.05103203 -0.031227045 0.038611703 -0.06338864 -0.023770336 0.032522455 -0.043658312
0.005438561 0.050708428 -0.06493046 0.036129553 0.05495204 0.043061424 -0.044467237 -0.0676136

cnn3.weight f4 [16, 32, 3, 3]
00000000: 7470 e0bb 0712 fe3c 350f 2dbd a893 92bd
00000010: 9c49 5dbd 924d b3bc e589 b43c 4083 1fbc
00000020: 0819 9ebc a0ac 303b d928 7ebd 5147 82bc
00000030: 854a 2bbc 27c4 973c ab34 3e3c 5b1b 373c
00000040: de79 8cbd c229 213d d4d4 dbbc c3ae febc
00000050: 4396 0a3d 8047 4a3d cc85 33bd c5bd 90bc
00000060: a491 e33c 12cd c7ba 9aec 3cbd 16d5 0abd
00000070: 2d23 45bd 4a5b 74bd 9a19 443d e542 23bd
00000080: f5be 4a3d ab03 7fbd 6af7 50bd ee30 413d
00000090: f2f3 d13c 85f8 08bd 16d9 94bc 6224 bb3c
000000a0: d47f 273c 7ebf d1bc 877d 3d3d 1d47 4f3d
000000b0: 38a0 8d3b 6342 a0bc b817 8cb9 d879 553d
000000c0: 7658 bdbb 2ff6 6f3b fe77 f63b 0600 96bc
000000d0: c8e7 26bd 7d49 c0bc b3fe 443d 64b0 e4b9
000000e0: 3ebb 51bd a1a8 0abb 7e58 72bd 2569 1b3d
000000f0: b199 56bc 7d14 67ba 2333 48bd 2b35 99bc
00000100: 1c19 3b3d 7353 fd3c 6bdc aa3c d4d7 813c
00000110: 9b26 70bc ffc5 cb3b 7794 6cbd 0b6a ffbc
00000120: 048a 16bd 870f 743c d115 cfba 5a21 1d3d
00000130: bba1 01bc 5d8b 6d3c 6df7 15bd b8ee b7bc
00000140: 4e32 ef3c 5563 d2bb e293 523c 5298 66bd
00000150: 3e56 b3bb d77d 883c 2709 f4bc a47a 563c
00000160: e6d0 c63c 6751 13bc 8d32 5cbd 348c 2dbd
00000170: e2c3 453d fa0d 783c e876 edbc a724 bcbb
00000180: e9dc 4fbd aaa4 07bd 8c03 1c3d 40af 53bd
00000190: 9111 443d 64ad 77bd 5712 2a3d bd22 9f3c
000001a0: 233c c23c 0175 2c3d 88bc 323c 1098 84bc
000001b0: db67 403d f429 3c3c 41d5 463d e93e 23bd
000001c0: f4f1 3fbd 4884 993b 0438 62bd 78dc ddbc
000001d0: a2c6 d93c 0715 123d e8d9 e43c 3ce8 023d
000001e0: 9318 13bd c6af 253d c053 1a3d fe5e fd3c
000001f0: 0447 993a b4dc 8c3c 89b4 073d 6486 093c
00000200: ed93 5cbd 33d2 4fbd 4cd6 37bd 881f a83b
00000210: 5691 db3c e549 573d 8683 aa3c a13a aa3c
00000220: 3954 a6bc c2c2 d03c 9b3e 06bd b88c cfbc
00000230: 789d 153b 0a07 3c3d 3e07 0dbc 8e67 95bb
00000240: 4c72 063c 94b5 c9bc fc51 4fbb 1551 573d
00000250: 385f a6bc b68a 3ebd e601 31bd e9e3 373d
00000260: bf4c 023d 78a4 09bd 760d a53c d590 17bd
00000270: 0331 363d 7981 3a3c cdba 64bc 45f6 1bbc
00000280: 1498 9f3c fc57 95bc 8e82 6c3c be88 673c
00000290: 74af 1a3d 3667 29bd c3cf 08bd 62b2 3b3d
000002a0: 299d 62bd 74a1 17bd 3766 d03b 14c2 5bbd
000002b0: f564 39bd 5a70 e9bc 24b2 683c ed37 d43c
000002c0: 61b7 1a3d 7708 80bd 61c5 d2bc ad91 363d
000002d0: 6d6f 82bd 2ca3 3a3d 8db8 4bbd f9b9 42bc
000002e0: bc97 6dbd 2e73 ee3c a415 06bd 868e a7bc
000002f0: cf2d 203d d2e0 03bd 1188 e9bc 98d0 92bd
00000300: 80e9 6abd 9f29 1dbc 83ee 80bc 2d06 51bc
00000310: 81b2 34bd c95e 5b3c 1df7 bcbc 345d e93b
00000320: 3ff7 593c 24e6 a03c 90c4 19bd 7e6d 743c
00000330: d795 173d 82b1 893b 51a2 ec3c 9a36 133a
00000340: 7bd1 78bc 7576 c0bc a4b6 5fbd 63f7 02bd
00000350: 018b 32bd 4a9a 9bbd 8351 89bd 034e b2bc
00000360: f918 04bd a299 0b3d d77f 383d 23a1 993c
00000370: e30f f53c ad4e 6abd e1af 39bd 2ed0 36bc
00000380: b1b8 02bd b91b 7bbd fdb4 85bc 83e3 05bd
00000390: bd1e 6abd 82f4 87bd 73ad 2f3d 1015 9f3c
000003a0: a8b9 8abb 3665 b43c 7a94 76bc 32e4 243d
000003b0: 13aa f63c 86c5 253d d1c0 39bd 9417 92bc
000003c0: 2bb9 1d3d ac0c 8abd 0474 e73c 96a4 403d
000003d0: 3a0d 273d b840 dcbc 86f6 4d3d c0bf 163d
000003e0: cd69 07bd 109a 4c3d 7204 3c3d 17d8 07bc
000003f0: 6066 273d 66a6 b1bc f15d 6cba fddc 3bbd
-0.006849343 0.031014455 -0.04225083 -0.071570694 -0.054025277 -0.021887574 0.02203841 -0.009735882
-0.019299045 0.0026958361 -0.062050674 -0.015903147 -0.010454779 0.01852615 0.011609237 0.011175956
-0.06859182 0.039346464 -0.026834883 -0.031089192 0.033834707 0.049384594 -0.04382877 -0.017668614
0.027779408 -0.0015243611 -0.04612408 -0.03389462 -0.04812925 -0.059657373 0.047875978 -0.039858717
0.049498517 -0.062259357 -0.051017202 0.047165804 0.025629018 -0.03344013 -0.01816992 0.022844497
0.010223348 -0.025604006 0.04626229 0.05060493 0.004322078 -0.019562906 -0.00026720553 0.052118152
-0.0057783676 0.0036615243 0.0075216284 -0.018310558 -0.040748388 -0.023472542 0.048094463 -0.0004361897
-0.05120396 -0.002115764 -0.059166424 0.03794207 -0.013098166 -0.00088150037 -0.048876893 -0.01870211
0.045678243 0.03092358 0.020857057 0.015849985 -0.014657642 0.0062186713 -0.057758775 -0.031178495
-0.036752716 0.01489628 -0.0015799348 0.038361885 -0.007912095 0.014498559 -0.036612917 -0.022452697
0.029198792 -0.0064205327 0.012852641 -0.056297608 -0.0054729274 0.016661568 -0.02978952 0.013090763
0.024269532 -0.008991576 -0.053759146 -0.042370036 0.04828251 0.015140051 -0.028987363 -0.005741674
-0.050747786 -0.03311602 0.03808932 -0.051680803 0.047868315 -0.060468093 0.041521396 0.019425744
0.023710316 0.04210377 0.010909207 -0.01618579 0.046974044 0.011484612 0.04854322 -0.039854918
-0.046861604 0.0046849586 -0.055229202 -0.027082667 0.026583973 0.035664584 0.027935937 0.031959757
-0.035912108 0.040450834 0.037677526 0.030929085 0.0011694138 0.017195083 0.033131156 0.008393858
-0.05385201 -0.05073757 -0.044882104 0.005130712 0.0268027 0.052560706 0.020814668 0.02077991
-0.020303832 0.025483493 -0.03277455 -0.025335655 0.0022829454 0.04590515 -0.008607684 -0.004559464
0.008205961 -0.024622716 -0.003163456 0.05256756 -0.020309076 -0.046519004 -0.0432147 0.044895086
0.031811472 -0.033604115 0.02014802 -0.037003357 0.044480335 0.011383408 -0.013960552 -0.009519164
0.019481696 -0.01823043 0.014435424 0.014131723 0.03776498 -0.041358195 -0.033401262 0.045824416
-0.05532566 -0.037019208 0.006359841 -0.053651884 -0.045262296 -0.028495956 0.014202628 0.025905574
0.03777254 -0.062516145 -0.025728883 0.04457252 -0.06368909 0.04556577 -0.04973655 -0.01188516
-0.058006033 0.029107656 -0.03273548 -0.020453703 0.039106186 -0.032196827 -0.028507264 -0.07168692
-0.05735159 -0.009592443 -0.015738731 -0.01275782 -0.044115547 0.013389298 -0.023067052 0.0071217064
0.013303577 0.01964099 -0.037540972 0.014918683 0.037008133 0.004202069 0.028885992 0.0005615741
-0.015186663 -0.023493985 -0.05461754 -0.031974208 -0.043589596 -0.07597788 -0.06705 -0.021765715
-0.03225038 0.034082063 0.045043793 0.018753594 0.029914802 -0.057203937 -0.045333747 -0.011158032
-0.031914417 -0.061305735 -0.016321654 -0.032687675 -0.05715822 -0.06638433 0.042890023 0.019419223
-0.0042335577 0.022020917 -0.015050048 0.040256687 0.030110395 0.040471576 -0.0453499 -0.017833509
0.038506668 -0.06740698 0.028253563 0.04703196 0.0407841 -0.026886329 0.05028393 0.03680396
-0.033059884 0.049951613 0.045902677 -0.008291266 0.040869117 -0.02168579 -0.0009016684 -0.045865048

cnn3.bias f4 [16]
00000000: e1d2 07bc 08b6 733d 0821 f2ba 4d31 e0bc
00000010: f426 c0bc 27bc 6fbd b4a0 97bd 350e 98bd
00000020: b0bf cebb 68a7 02bd 7039 48bd f0be 8e3d
00000030: d6c6 97bd 31d9 b43b 7cda e0bc b40c ecbc
-0.008290024 0.05949977 -0.0018472979 -0.027367258 -0.023456074 -0.058529045 -0.074036986 -0.07424585
-0.006309472 -0.031897932 -0.0488829 0.06970012 -0.07410972 0.0055190553 -0.027447931 -0.028814651

fc1.weight f4 [128, 385]
00000000: 2178 4cbc 024e 77bb f8b7 5d3d ebce c33c
00000010: 954a 02bd 2b69 333d e2d3 3b3d a3f2 e33c
00000020: 835c 22bd 3356 883c 71db 033d aba8 583d
00000030: c56d 603d 6994 ab3c 2506 b7bc e1d7 ccbc
00000040: 685e adba 94c6 28bd d3e9 22bd 1c74 483d
00000050: 4acf 38bc 00af 8fbb 5338 d5bb 9e03 f03b
00000060: 425f 933c 06e8 bc3d 0ab7 963d 0de5 4fbd
00000070: 731a bcbd 1f90 d43c 78d9 c73b 302c c73d
00000080: e89f d13d fe09 de3c c797 88bc 0d3c 97bd
00000090: 6f3c aabc 7841 a7bc e359 83bd 6b35 fb3c
000000a0: eef0 32bd 79e9 a2bd 7f28 c5ba a1ec 2b3d
000000b0: 55c2 35bc 77dd febd dcad c0bd 90ea e83d
000000c0: a62a cdbd 8680 b7bc ada0 66bb 6ace 973d
000000d0: c28a 9e3d 6163 2d3d 372d 503d 03a7 a43c
000000e0: 5ca0 8e3d 5445 f73c fe7d 883b 2e9c fa3c
000000f0: 82fc 94bd 4f47 80bd 6595 cdbd 780f b8bc
00000100: 4e9f eebd 0f56 88bd 6dc6 cdbd 6694 77bc
00000110: 534e 1bbd 0163 ac3d 0ec7 e23d 887e a83d
00000120: 3edf f8bb 0c3a 6a3d 9d5f e1bc 313c 8ebd
00000130: 8155 4abd 3c73 65bb b16a 22bd 480d c5bc
00000140: d4e3 033e 83e7 f93c c505 613c ac51 dd3b
00000150: 37ab f2bd 9ccc bcbd bf30 40be 9d73 02be
00000160: cbbe b13d 42e4 2e3e eb1c 073e 6ee5 05ba
00000170: 6830 ecbc 36d4 73bd 8ec4 2cbd 5a81 4bbc
00000180: 4a65 7fbd 8385 1cbd a7f2 70bd 96ff 0b3d
00000190: 74db f33b ec41 07bd 70e3 98bb 5963 143c
000001a0: 8b77 41bb 54f8 0c3d 9b8b 6a3d 9e4d 353d
000001b0: 5e50 d13b 857d fabd 5640 14be cedb 11bd
000001c0: 568f 063e 5da3 313d 3f4d a13d fec6 2abd
000001d0: 669a 62bd 6cb2 a4bd 087e 203d 7d9e 013e
000001e0: 5f69 84bb 4b29 b7bc 4b57 193c 930f 18bc
000001f0: 282c ecbc 3c2c 30bc 47b1 bbbb d044 af3c
00000200: 8da0 2ebd 371a 39bd b238 b83c 9906 2e3c
00000210: 0ceb 62bd 5bb5 a5bc 3341 3dbd 1cef fabb
00000220: 133f 513d e62f 593d 5e84 ca3c 79f3 e5bc
00000230: 7165 d4bb 2396 0b3d 743b 14bd 2a6c 413d
00000240: 91ba 84bc a903 dc3d 738e 6fbd 4707 233d
00000250: a9cc af3d 1eff b93c 459e 3f3c 94a3 623d
00000260: dea8 99bd 866e dcbd e417 133d 5c91 59bb
00000270: e083 373c d446 393d a575 9b3a 157a b33d
00000280: 9b15 a4bd f18a efbd 4811 95bc b506 47bc
00000290: 56df 883b c683 80bc f21c 95bc deaa e0bb
000002a0: cb8a f6bc 0feb bdbc bfa3 87bd 7537 09bc
000002b0: 7555 263c be13 84bd d1ff 613c 00fd 243a
000002c0: 1018 9e3b 749e 103c 20d5 3e3d 2474 a03c
000002d0: b84e dc3c 9cb4 233d 206d 933c e8a2 8bbb
000002e0: 4218 3abc 5773 e9bb 24f7 a23d 69f0 c9bc
000002f0: 57cd 46bd 983b 7cbc b8e0 133d d298 0f3d
00000300: 16cf e93c 204c 88bb bcaf 6cbb 142e 2fbd
00000310: 569b 26bd b449 13bd b1b5 d7bb 6e9b 33bc
00000320: 9e2e c13c a43f 63ba 7de0 323c d4b5 0fbd
00000330: 12c8 6a3c eca4 73bc 424b 46bd 5d3e f03c
00000340: 77ba 133d b61a febc 63a1 2abc dfd3 c6bc
00000350: 5ac6 01bd 5026 16bd 9e61 9a3c 3efc 73bc
00000360: 8994 24bd 0e16 54bd 335c 70bd 1d85 d0bd
00000370: 3736 83bd 492d 433d 4bb0 673d ed5f ab3d
00000380: c2c3 2dbd aae3 8cbd 86e3 81bd 0157 91bd
00000390: 2941 90bd 4341 8b3b 0232 4bbb 2ee4 8b3c
000003a0: 37d3 88bc 8e74 a0bc 4925 8bbc 21ad 8dbd
000003b0: 7850 81bc 1d98 0b3b 303f e5bd 5ac1 f9bd
000003c0: 05a5 4ebc 0739 0dbd 3108 74b9 0352 36bc
000003d0: 3b56 e3bc b9b8 933c 49de 98bc 3db9 95bc
000003e0: b324 ddbb b591 2a3c b1c9 193c 0b03 adbc
000003f0: f997 223d 5501 6e3c 0e2d 2abc 5e69 003d
-0.012479813 -0.0037735705 0.054130524 0.023902377 -0.03180941 0.043801468 0.045856364 0.02782566
-0.039639007 0.016642665 0.032191698 0.05289523 0.054792184 0.02094479 -0.022341797 -0.025005283
-0.0013226988 -0.041205004 -0.039773773 0.048938856 -0.01127989 -0.0043848753 -0.0065069585 0.00732465
0.017989758 0.092239425 0.07359131 -0.05075555 -0.09184732 0.025947629 0.0060989223 0.09725225
0.10235578 0.027104374 -0.016673936 -0.07384501 -0.02078077 -0.02041696 -0.06413629 0.03066512
-0.0436868 -0.079546876 -0.0015041976 0.041973714 -0.011093696 -0.12444585 -0.09408161 0.11372864
-0.100179 -0.022400152 -0.0035190985 0.07412417 0.0774131 0.042331103 0.05082437 0.020099169
0.0696418 0.030184425 0.00416541 0.03059205 -0.072747245 -0.06263601 -0.1003826 -0.022468314
-0.11651479 -0.066570394 -0.10047612 -0.015111065 -0.037916493 0.08417321 0.11073123 0.08227259
-0.007594972 0.057184264 -0.027511412 -0.06945074 -0.04939795 -0.0035011312 -0.03965253 -0.024054185
0.12879878 0.030505901 0.013734286 0.006754121 -0.11849063 -0.09218714 -0.18768595 -0.12739415
0.08678969 0.17079261 0.13194625 -0.0005107735 -0.028831676 -0.059528552 -0.042179637 -0.012420977
-0.062352456 -0.038213264 -0.05882516 0.034179293 0.0074419323 -0.033021852 -0.0046657845 0.009056889
-0.0029520716 0.03441651 0.057262044 0.044263475 0.0063877543 -0.12230972 -0.14477667 -0.035610013
0.13140616 0.043368686 0.07876062 -0.04169368 -0.055323027 -0.08041844 0.039182693 0.12658115
-0.0040408815 -0.022358557 0.009359191 -0.009281057 -0.02882965 -0.010752734 -0.00572792 0.021395117
-0.042633582 -0.045191016 0.022487972 0.01062169 -0.05539994 -0.020228079 -0.046204757 -0.0076578986
0.051085543 0.053024195 0.02472132 -0.028070198 -0.0064818193 0.03407873 -0.03618951 0.047222294
-0.016202243 0.107428856 -0.05848546 0.039801862 0.08583958 0.022704657 0.011695449 0.05533178
-0.07502912 -0.10763268 0.035911456 -0.0033198213 0.011200875 0.045233563 0.0011860622 0.0876352
-0.080119334 -0.11696423 -0.018196717 -0.012147595 0.0041770143 -0.015687834 -0.018202279 -0.0068563065
-0.030095479 -0.023183374 -0.06623029 -0.008375038 0.0101522105 -0.06449078 0.013793902 0.00062938035
0.004824646 0.008826841 0.04658997 0.01958663 0.026893005 0.039967164 0.01799637 -0.0042613633
-0.011358323 -0.0071243453 0.079572946 -0.02465077 -0.04853567 -0.015395068 0.03610298 0.03505785
0.02854113 -0.0041594654 -0.0036115488 -0.042768553 -0.040675484 -0.03595896 -0.0065829386 -0.01096235
0.0235818 -0.0008668846 0.01091778 -0.035085514 0.014329927 -0.014870863 -0.048411615 0.029326612
0.0360665 -0.031018596 -0.010414454 -0.02427095 -0.031683303 -0.03665763 0.018845376 -0.014891682
-0.040180717 -0.051778845 -0.058681678 -0.10181639 -0.06406825 0.04765061 0.05656461 0.08367906
-0.042423017 -0.06879361 -0.06342225 -0.07096673 -0.07043678 0.004249723 -0.0031005149 0.017076578
-0.016702278 -0.019586828 -0.016985552 -0.06917787 -0.01578544 0.0021300383 -0.11193693 -0.12195082
-0.012612586 -0.034478214 -0.00023272705 -0.011127952 -0.027751079 0.018032419 -0.018660681 -0.018276805
-0.0067487597 0.010410716 0.009386466 -0.021119615 0.039695714 0.014526685 -0.010386718 0.031350486

fc1.bias f4 [128]
00000000: b492 c43c c750 6dbc f6a4 84bd ba61 53bd
00000010: e818 7cbc a233 07bd f342 10bc 9217 a3bd
00000020: a2e8 933d 8f68 af3c b774 02bd 9c89 7e3d
00000030: 7137 5c3d eb60 61bc 0137 8e3c 68ef c23b
00000040: f2d5 863d cc17 94bd 2afd 143d 3cd2 49ba
00000050: 0cae 483d 0ee9 6fbd 9900 853d 1349 323c
00000060: d026 293c f997 6c3d 6ea9 973d bed7 153d
00000070: 8e86 2cbd d446 1abd 1812 9f3d 05a1 d2bb
00000080: ce13 0b3d 2985 11bd a95b 033d f00f 863b
00000090: 812c 29bc 79f3 993d f4d7 09bd 72ba 35bc
000000a0: 5942 743c 49ba 4e3b bf32 8dbc 75db 7f3c
000000b0: c0b4 0cbd 3ad5 953d bfcc 153d 6287 0c3d
000000c0: 408a 6cbd 4e0a e2bb 65ca 23bd ea70 5d3a
000000d0: a4a8 063d c9df ac3d 821b 1abc d77f 2cb9
000000e0: 7014 8f3c c45c b5bc 7e4f 233d 50ad 9a3c
000000f0: 8451 0dbd f60b a13c 8f7d 25bb cad9 39bd
00000100: 1136 06ba 45be 053c 94ec 963d 1945 7cbb
00000110: 13f3 ee3b 1c69 22bd 055b 6cbb c8d9 6e3c
00000120: c91a 2e3d 4f51 11bd aa29 533d 81a8 713d
00000130: 6182 4ebd c743 eb3d e29e cb3c 3c12 68bb
00000140: b59b b6bc 1f81 fd3c 83b2 46bd e417 0c3c
00000150: cf96 9dbd f6ce 00bd eb19 7dbd 1f00 a73c
00000160: 8385 393c 4971 7dbd 1d2f 33bd 8bd4 76bd
00000170: 0e58 03bd db1e 57bd 440e 2abc f2e3 d8bb
00000180: 9383 91bc 0090 1abc ddbf 35bd 04a6 0a3e
00000190: 299d 1fbd 9518 dabb 49d8 883d c978 ccbb
000001a0: 4536 b5ba fe3e ad3d a0ce e6bc 3eec 09bd
000001b0: 8b46 98bc d04e 383d 0395 5cbd f9d5 39bd
000001c0: b280 90bd 8cb8 3bbd b553 9abd d568 743d
000001d0: 08c7 993d 3318 a2bd 022c 59bd fffe 023d
000001e0: 6dc8 103d 6f52 9b3c 38e6 a13d 6eb4 8fbd
000001f0: e168 293d 1a0e 07bb f781 5c3d 2188 f13c
0.023995735 -0.014484591 -0.06476776 -0.05160687 -0.0153867975 -0.033008225 -0.008805024 -0.0796348
0.072221056 0.021412162 -0.03184959 0.062142953 0.05376381 -0.013756017 0.017360212 0.0059489496
0.065837756 -0.072311014 0.03637425 -0.0007698869 0.04899411 -0.058571868 0.064942546 0.01088168
0.010324195 0.05776212 0.07405363 0.0365827 -0.04212051 -0.037665203 0.07767123 -0.0064278864
0.033954434 -0.035527382 0.032069836 0.0040912554 -0.010325552 0.07517142 -0.033653215 -0.011091815
0.014908397 0.003154414 -0.017236112 0.0156162875 -0.034352064 0.0731606 0.036572214 0.0343088
-0.057749033 -0.006898201 -0.03998794 0.00084473065 0.032875672 0.08441121 -0.009405972 -0.00016450822
0.0174658 -0.02213896 0.03987073 0.01888147 -0.034501567 0.019659024 -0.002525184 -0.045373715
-0.0005119751 0.00816304 0.073693424 -0.0038493334 0.0072921603 -0.03965102 -0.0036064994 0.01457829
0.042506013 -0.035477933 0.051553406 0.05899859 -0.050417308 0.11487537 0.024856035 -0.003541126
-0.022291044 0.030945359 -0.048510086 0.008550618 -0.0769478 -0.031447373 -0.061792295 0.0203858
0.011323336 -0.061875615 -0.043746103 -0.06026129 -0.032066397 -0.05251966 -0.010379378 -0.00661897
-0.017762935 -0.009433746 -0.04437243 0.13539892 -0.03896824 -0.0066557624 0.06681878 -0.0062399847
-0.0013825378 0.084592804 -0.028174698 -0.033672564 -0.018588325 0.044997036 -0.053853046 -0.045370076
-0.07055797 -0.045830294 -0.07535497 0.059670288 0.07508665 -0.07914772 -0.053020485 0.031981464
0.03534739 0.018960206 0.07905239 -0.07016836 0.041359786 -0.002060777 0.05383488 0.029483857

fc2.weight f4 [64, 128]
00000000: 1f51 30be e590 d3bc 4781 55bd 940b bdbd
00000010: a0ec 9abd e793 ce3d db6e 833d 3beb 183d
00000020: d0f6 35ba 73ab 2f3d a67c 433d 2f05 223e
00000030: b30e 863d 10c2 d4bb b291 9cbd 76a9 04bd
00000040: 543b d6bd 72a5 723d 850d 4c3c 7d2d ad3d
00000050: 29d2 f33d fe38 783d 1a11 343e 4a8c 3b3c
00000060: 4ccf b5bc a028 bebd 077c 823e f651 1d3e
00000070: 8ef8 21be 33a8 2abe a341 c3bd 5078 8a3d
00000080: 2906 8dbe 1648 52bd 42f9 a6bc 695c d9bd
00000090: dcc3 503d 234b 3abe 7788 30bd e675 d53c
000000a0: 4abf cc3d 25e0 6dbd fe3f 76bd fb7c 8fbd
000000b0: 1a40 a5bd 8362 8c3d 58bd 333d cc84 5c3a
000000c0: 288e b2bd c061 bcbb 35ad a5bd 7e92 03be
000000d0: 3767 853c dca2 0e3e 28f5 c93c eea1 683d
000000e0: 15dc e1bd 23e4 a53d 487e 2ebe c685 e0bd
000000f0: ecf9 92bd ca52 f2bc 8f66 fbbd ee74 643d
00000100: 23cd 0a3e e561 2b3d 0569 4d3e 10f9 d43b
00000110: 9a56 343d d64a 823d c1b4 b03d d840 02bd
00000120: b685 69be 23e3 8b3d c543 a3bd e3b6 37be
00000130: 1a8b 9dbd 7b20 f1bc 00bc 46bd 0ef6 2f3d
00000140: 73c3 64bd 3575 813d a4ee aebc 24a8 81bd
00000150: cd34 82bd 5bd2 5dbd 7abc 8cbd 8c5c 26be
00000160: 8400 cf3c 2455 1d3e 15dd cc3c 3881 ee3c
00000170: 7804 833d b015 b2bd 0cdb 6cbd c1a7 3d3d
00000180: 9c6e d13d 5a75 23bd 5684 70bd 2a6c 833d
00000190: f01e 75bc 48ad aebc 56dc 653b 9b34 b03d
000001a0: 42bb 5abc a653 4e3e 5863 53bd 9093 4abd
000001b0: e077 5abd 0ce1 e93c 7175 863d 12a7 51bd
000001c0: ac56 6cbd 5605 6cbd 6ac3 acbd 0556 aebc
000001d0: 0ae8 bbbd 6d38 7bbd 3b0c 843d bbdd 833d
000001e0: c544 03be c83c 773c 9a91 633d a3dd 23be
000001f0: 0dfe 67bd 47f7 54bd 4101 01be 6894 293d
00000200: 2968 9f3d a344 e4bc e2c9 783d 4f15 163d
00000210: 04f4 bd3c 5dd9 f43c 6cf6 93bd d27c 5bbc
00000220: e0af 2bbe 2a9a dabd 93b7 803d 1e0c 4dbe
00000230: 5287 983d e245 bebc cb01 bf3d e81a b8be
00000240: 81b5 a9bc 2c46 9f3b b85a 13bc 3275 c03c
00000250: 566c f4bc 7562 883d 1e43 2cbe 06e7 dbbc
00000260: dc1f 69be d875 f6bc 6f4d 8bbe a9a9 bf3d
00000270: 9b45 e03d dfe1 ae3d 22b7 86bc a4b9 22be
00000280: b01a 35be dbd5 b8bc e373 ee3c 1cbc 4fbd
00000290: 9dc3 9cbc 96e4 ce3d b40e 87bd c24b ae3c
000002a0: f780 16be 8e5f f1bc 05e6 4f3d 3b55 0c3d
000002b0: 3924 663d 6a4a 333d 4a29 83bd e3b1 153d
000002c0: 786f 2b3d 396f 323d 89db dc3c 9830 a6be
000002d0: 4458 8a3d 97c4 8fbe 9a04 e3bb 6bfe e6bc
000002e0: 8d5a 6a3e 685e 3abd 131b 973d 3e75 19be
000002f0: 8123 8d3d 35f9 3cbd a5ee 2f3d 8b37 883c
00000300: 57b6 f13b 3386 0abe fac3 3bbd fa3b 973d
00000310: f447 b9bc 24b2 da3b 5a9e 74bd 5c58 193d
00000320: cecc 683d 3c1c 08bd bbe4 8ebe d9b8 0bbe
00000330: bb8c 84bc 8bf6 59be b88a 183d c4f0 d1bc
00000340: 9ad5 fabc e6b7 653c aa26 6dbd 480f 92bd
00000350: a580 813a 7424 96bd 046c 803d 02f1 a4bd
00000360: d78f 61bc 0e39 a33d cf9b f33d d281 193d
00000370: 5848 cd3d 4870 2dbd b245 053d 4617 113d
00000380: 27b8 9a3b 071a 8fbd 8d49 173d 3cb0 8b3d
00000390: 265e 36bc 7171 a1bd 3e0f c03c 7779 b7bc
000003a0: 2cc7 c53b 5d12 32be b71e 543d 876d 8abd
000003b0: 9c5c 823d bbbd 10bc eccb e53c 59aa 8a3c
000003c0: f171 bebc cb51 c43d 76ef 84bd 4e2e 05be
000003d0: ee23 84be daa0 d8bc a06b aa3c 4e85 8cbe
000003e0: b652 f0bc 1a2a 69be ae64 243d 3711 173e
000003f0: 4c00 9f3d c763 173d bb71 0b3e 1eb5 063d
-0.17218445 -0.025825927 -0.05212524 -0.09230724 -0.07564664 0.10086804 0.064176284 0.03733371
-0.000694138 0.042888116 0.047726296 0.1582229 0.065457724 -0.0064928606 -0.07644977 -0.032388173
-0.10460535 0.059239812 0.012454395 0.08455942 0.11905319 0.060601227 0.17584649 0.011447022
-0.022193573 -0.09285092 0.2548525 0.15363297 -0.15817472 -0.16665725 -0.095340036 0.06761229
-0.27543762 -0.051338278 -0.020382527 -0.10613329 0.050968036 -0.18192725 -0.043098893 0.026057195
0.09997423 -0.05807509 -0.06011962 -0.0700626 -0.08068867 0.06854727 0.043881744 0.0008412122
-0.087185204 -0.0057489574 -0.08089677 -0.12848851 0.016284568 0.13929313 0.024653032 0.056795053
-0.110283054 0.08100154 -0.1704036 -0.10963015 -0.07176575 -0.029580493 -0.12275421 0.055775575
0.13554816 0.041841406 0.20059593 0.006499417 0.044027902 0.0636193 0.08628226 -0.03180012
-0.22804913 0.06830432 -0.079719104 -0.1794086 -0.07692547 -0.029434433 -0.048519135 0.042959265
-0.055850457 0.063211836 -0.021354027 -0.063308984 -0.06357727 -0.05415569 -0.068718866 -0.16246241
0.0252688 0.1536451 0.025007764 0.02911435 0.06397337 -0.08695543 -0.057826087 0.04630256
0.10226175 -0.039906837 -0.058719955 0.06417115 -0.014960989 -0.021322861 0.0035073957 0.08603784
-0.01335031 0.20149097 -0.051608413 -0.049457133 -0.053336978 0.028549694 0.06565369 -0.05118472
-0.057699844 -0.057622276 -0.0843571 -0.021281252 -0.09175117 -0.06133311 0.06447645 0.06438776
-0.12819202 0.015090175 0.05555878 -0.16002516 -0.056638766 -0.051993635 -0.12598135 0.041401297
0.07783539 -0.02786476 0.060739405 0.036641415 0.023187645 0.029888803 -0.072247356 -0.013396459
-0.1676631 -0.10673936 0.06285014 -0.20024154 0.07447685 -0.023226682 0.09326514 -0.35958028
-0.02071643 0.00486066 -0.008993797 0.023493383 -0.029836815 0.06659404 -0.16822478 -0.026843559
-0.2276606 -0.03008549 -0.27207515 0.09358532 0.10950776 0.08539175 -0.016444746 -0.15891129
-0.17685962 -0.022562912 0.029107993 -0.050716504 -0.019136244 0.10102193 -0.06594601 0.021276359
-0.14697634 -0.02946451 0.050756473 0.03426097 0.05618689 0.04377214 -0.0640436 0.0365466
0.04185435 0.0435631 0.026960151 -0.3245895 0.067551166 -0.28079674 -0.006928039 -0.028197488
0.22886105 -0.04550019 0.07378211 -0.1498613 0.068915375 -0.0461361 0.0429522 0.016628047
0.007376473 -0.13527755 -0.045841195 0.073844865 -0.022617318 0.006674068 -0.05972133 0.03743778
0.056835942 -0.03323005 -0.27908882 -0.13644733 -0.016180387 -0.21285455 0.037241668 -0.025627501
-0.030619431 0.014020896 -0.0578982 -0.07131821 0.0009880258 -0.07331172 0.06270602 -0.08053781
-0.013767204 0.07969867 0.118949525 0.037477322 0.10023564 -0.042343408 0.03253717 0.035422586
0.0047216597 -0.06987386 0.036935378 0.068207234 -0.011130845 -0.07882965 0.023444768 -0.022396786
0.006035706 -0.17389818 0.051787104 -0.06759172 0.0636532 -0.008834298 0.02805134 0.016926931
-0.02324769 0.09585913 -0.06490986 -0.13005945 -0.25808662 -0.026443888 0.020803273 -0.27445453
-0.029336315 -0.22769967 0.040135078 0.1475266 0.077637285 0.03696039 0.13617603 0.03288757

fc2.bias f4 [64]
00000000: 2299 4bbe dcf7 1c3d a85e 733d d98c 953d
00000010: d8a3 203d 17d2 c93d e1b3 6c3d 63ec 823d
00000020: b831 773c 2a57 c33c 3821 9b3d a776 bfbc
00000030: 3c04 843d 4c88 953d 00af 873d 30bf d03d
00000040: 76b3 ba3d 3bb7 c43d 1bf5 3e3d d253 f13d
00000050: 1402 713d 1d61 c43c c2ab 73bd b89e 5dbd
00000060: 28ff 363d 41bd 893d 1c5c 883d 6170 9f3d
00000070: 9567 5d3d 7df6 c43d 50fe b03d d781 323d
00000080: 95f3 a33d 02b4 4dbe 0323 a23d 3442 bdbc
00000090: 95ec c6bd ba98 c03d 4a29 eb3c 4d4f 223d
000000a0: e274 56be 11af ab3d 1fc9 c73d 63b7 b23d
000000b0: 09db 4a3d 0ea7 703d d4bc 983d 9e72 21be
000000c0: 5fc1 483d 9a4e d73d 5b9b a13d 8563 bcbb
000000d0: 5727 9a3d c4a9 903d 2605 643d 00a6 cd3d
000000e0: 9f3c ae3d c976 973d 163e 8d3d ff9d d23d
000000f0: e3a1 a33d da2f b63c 26b9 6f3d e255 9b3d
-0.19882634 0.038322315 0.059416443 0.07302255 0.039218754 0.098545246 0.057788733 0.063927434
0.0150875375 0.023845274 0.07574695 -0.023372008 0.0644612 0.07301387 0.066251755 0.10192716
0.09116261 0.09605261 0.04662047 0.117835656 0.058839872 0.023972088 -0.059489973 -0.054106444
0.04467693 0.067255504 0.066581935 0.077851065 0.05405386 0.096173264 0.08642256 0.043580856
0.08005444 -0.20088199 0.07916834 -0.023102857 -0.09713093 0.0940413 0.028706212 0.03962641
-0.20943025 0.08383001 0.09755158 0.087263845 0.049525294 0.058753066 0.07457891 -0.15766379
0.049012538 0.10513039 0.0789096 -0.0057491683 0.07527035 0.0706363 0.055668972 0.100414276
0.08507656 0.07395703 0.068966076 0.102840416 0.07989862 0.022239614 0.05852618 0.0758474

fc_output.weight f4 [2, 64]
00000000: 2ca5 a9be 800b 2fbc 0b8f 2c3e 89f2 0a3c
00000010: 44d6 2bbd fd34 1c3e f716 2c3e 5dea e83c
00000020: 9ef7 b23d f484 7dbc de06 263e aad6 703e
00000030: 8d36 0e3e afd5 20be a216 56be 3d71 6cbe
00000040: f3ce 323e 4573 31be d04b 873c ab04 54be
00000050: c13b 823e 8392 633d 00d1 9b3a b9d8 e9bd
00000060: a8e4 ae3d ebec d83d d8a9 0dbe 0ae3 5a3e
00000070: a1ee 123e c3b6 163e 1908 1d3e 7bf1 13be
00000080: 5578 263e aaf1 9fbc 7de8 3b3e 9047 f2bd
00000090: 815c 83be 5d98 3ebe e01c 52be 447b 5abc
000000a0: 42fb 9e3e fe25 333e 2a7c 203e 6906 90bd
000000b0: e343 273e 13d7 3e3e 19d2 303e 3270 83be
000000c0: d3c9 20be 0345 3bbe e649 01be 68ac 563d
000000d0: a1b0 0fbe a42c 3fbe 8634 40be ceff 33be
000000e0: 0091 3c3e 7a60 f4bd 87d3 193e 63eb 43be
000000f0: 3259 dabd d247 773d 0385 0d3e 1225 7e3e
00000100: 855b ac3e c310 843e cd97 b03d c17a 243e
00000110: e637 2a3e feb6 a2bb b92f 4a3c 8843 443e
00000120: e082 573e 4668 533e 227a 19bc e86b ddbd
00000130: 4c02 b2bd 34ef 963d 687d e3bd ff53 30bd
00000140: c2b9 1e3d a168 a1bc 4d3f 433e 0c58 50bd
00000150: f4de fcbd eca0 3c3e 9c8f a43d 1f95 b9bc
00000160: 8d99 313e 4bab e73d d803 bc3d bd8a a0bd
00000170: 6081 063d ef64 7dbb de6a 593d 82c8 843d
00000180: 01fd d5bd 472f cdbe 01dd 89bd ddec 63bd
00000190: 2419 b03d dee4 bebd f180 0cbe 9655 863e
000001a0: f1c0 16be b4db e3bc f12d e2bc eb8a 933d
000001b0: 5d6b cebd 21ea 503d 5d37 c1bd 2f40 3f3e
000001c0: ac99 f83d 3961 503c 3728 c83d 5f38 fcbc
000001d0: 4818 3e3e dda1 d8bd c77f 0ebd 4b7c 893c
000001e0: d974 563c 1430 473d 2290 f53d 8d71 90bd
000001f0: d219 9ebe b573 7e3e da1e 67bc 6743 8ebd
-0.3313383 -0.010683894 0.16851442 0.008480676 -0.041952386 0.15254588 0.16805635 0.028432066
0.087386355 -0.015473593 0.16213557 0.23519388 0.13887997 -0.15706514 -0.20907071 -0.23090072
0.17461757 -0.17329128 0.016515642 -0.20704906 0.25436214 0.055559646 0.0011887848 -0.1141829
0.085397065 0.105920635 -0.13834321 0.21375671 0.14348842 0.14718156 0.1533512 -0.14447586
0.1625684 -0.019524414 0.18350406 -0.11830056 -0.25656512 -0.1861281 -0.20518827 -0.013335053
0.3105107 0.17494962 0.15672365 -0.07032473 0.1633449 0.18636732 0.17267646 -0.25671536
-0.1570199 -0.18288045 -0.12625846 0.052410513 -0.14032222 -0.18669373 -0.18770036 -0.1757805
0.18414688 -0.11932464 0.15022098 -0.19132762 -0.10661544 0.060371228 0.13820271 0.24818829
0.33663574 0.25794038 0.08622704 0.16062452 0.16622886 -0.004965662 0.0123404795 0.19166386
0.21046019 0.20645246 -0.009367498 -0.10811597 -0.08691844 0.07369843 -0.11107904 -0.043048855
0.03875137 -0.019703211 0.19067116 -0.050865218 -0.123472124 0.18420762 0.08035204 -0.022654114
0.17343731 0.113119684 0.09180421 -0.07838962 0.032838225 -0.0038664897 0.053080432 0.06483556
-0.10448647 -0.40075132 -0.06731606 -0.055645812 0.08598545 -0.09320997 -0.13721062 0.26237172
-0.14722039 -0.027814724 -0.027609797 0.07204231 -0.10079072 0.051004533 -0.09434388 0.18676828
0.121386856 0.012718492 0.097732954 -0.030788599 0.1856395 -0.10577748 -0.034789827 0.0167829
0.013089382 0.048629835 0.11990382 -0.07052908 -0.30879074 0.24848826 -0.014106477 -0.0694645

fc_output.bias f4 [2]
00000000: e483 37bd 4fe4 5a3e
-0.044803515 0.21376155
